outputs_test/checkpoints/best.pt (torch, 694146 bytes, 38 tensors)

enc.net.0.weight f4 [32, 3, 3, 3]
0.1449015 0.15841378 -0.043780454 0.17346182 -0.04232233 0.037145972 -0.09976387 0.10621119
0.16509515 -0.12807643 0.17831554 0.048893344 0.15618718 0.038151924 0.107634 -0.021986179
0.15082891 0.032677237 -0.08715532 0.049498983 -0.09516563 -0.013570316 -0.07113822 0.13319016
-0.14532743 -0.08413726 -0.055875998 -0.118824184 0.02188133 -0.18471143 0.1694001 -0.1571889
0.15396851 0.031172726 -0.05044764 0.12697145 0.03821013 0.16202849 0.03195075 -0.050402705
0.059915736 -0.04203659 0.08595786 0.1756615 0.11669296 -0.0738034 0.12122757 0.039910425
0.10086272 -0.112993136 -0.19141941 -0.069935665 -0.14209318 0.16020314 0.061291248 0.08652752
0.060393132 0.0012812299 0.1568349 -0.13983752 0.01669219 -0.1260241 0.054774307 -0.07357842
0.050847307 -0.049399573 0.1503556 -0.12400113 -0.12699343 -0.12067172 0.16543832 0.052543174
0.19371805 -0.14920622 -0.1812853 -0.14122333 -0.119199395 0.08737809 0.0792714 0.17087696
-0.0885791 -0.13995254 0.098868355 -0.08014904 0.10980604 -0.04603846 0.10973416 -0.16107406
-0.10364014 0.050949175 0.045851607 -0.04295995 0.12082781 0.12648305 -0.14236636 -0.10483558
0.16643625 -0.073848166 -0.07656362 -0.19510323 -0.11078754 0.049032114 -0.014459442 -0.12828495
0.019960176 -0.11614444 -0.14515372 -0.082469895 -0.1633443 -0.11635681 0.20043282 0.032123078
0.05729777 -0.17774409 -0.12967432 -0.066135824 0.032041956 -0.16482556 -0.07637636 -0.11156538
-0.015516862 -0.086053416 -0.02984535 -0.13867328 -0.13503449 -0.117351286 -0.06840043 -0.15387452
0.15951908 -0.040076334 0.16592239 0.06039695 -0.15966877 0.13706072 -0.048496984 -0.08012072
-0.16143636 -0.2049478 0.05726059 -0.035177797 0.075333476 -0.15227365 0.15240754 -0.13561602
-0.036207817 0.037062567 0.09603499 0.15733343 0.17732702 -0.15071759 0.053134732 -0.07768359
-0.01621019 -0.1511737 0.16788612 -0.14871116 0.09487785 0.059358 0.054023013 -0.116661966
0.16200384 0.028928744 0.027964009 -0.1626622 0.08596941 -0.029194087 -0.08374898 0.1690145
0.044855103 -0.098831914 -0.09025528 -0.020378625 0.09555509 -0.05973444 -0.12214542 -0.07926596
-0.15596983 0.066124775 0.14632073 -0.1833745 0.040036898 0.09422977 0.03126539 -0.07111406
0.097425975 0.099649854 0.07457175 -0.031004542 -0.045646925 0.030049708 -0.02196694 -0.04229556
0.12271086 0.16577668 -0.01110251 -0.0414565 0.0058300453 0.0004034388 0.05879518 0.06707442
-0.16074556 -0.073424116 0.16013707 0.07554169 -0.021375109 -0.12609348 -0.1270624 -0.1710903
-0.061673608 0.06574641 0.12869619 0.09459015 -0.16416283 -0.10722879 -0.022299152 0.1940947
0.0298224 -0.05298735 0.07995974 -0.073157616 -0.12711075 0.13939896 -0.08263208 -0.03757275
-0.18501233 0.13258722 0.14627738 0.07055586 -0.12919675 -0.18871559 -0.15666741 0.15045914
0.0957085 0.16417609 0.102918774 0.050067276 0.0018072029 -0.14851102 -0.16834341 -0.17804481
0.08429931 -0.08746811 -0.030103246 -0.09467408 -0.017161515 -0.11333143 -0.11584372 0.07640734
-0.044284575 0.115730405 -0.058628634 -0.14268635 -0.0542534 -0.11199627 -0.07820969 -0.1933463
00000000: 0f61 143e 3937 223e 2253 33bd fa9f 313e
00000010: 2e5a 2dbd 6026 183d 0051 ccbd 4185 d93d
00000020: b40e 293e 7826 03be 5998 363e 6344 483d
00000030: 88ef 1f3e 3145 1c3d 376f dc3d 5c1c b4bc
00000040: e572 1a3e 91d8 053d 7d7e b2bd 72bf 4a3d
00000050: 33e6 c2bd 0856 5ebc eab0 91bd 0063 083e
00000060: b7d0 14be 2850 acbd 3bde 64bd 185a f3bd
00000070: 7a40 b33c fe24 3dbe 3877 2d3e 21f6 20be
00000080: eca9 1d3e f25d ff3c 2fa2 4ebd ce04 023e
00000090: 3a82 1c3d ccea 253e cade 023d 1173 4ebd
000000a0: 346a 753d 8f2e 2cbd ad0a b03d 9ce0 333e
000000b0: b8fc ee3d 3d26 97bd 2946 f83d 1d79 233d
000000c0: 1d91 ce3d f268 e7bd 7303 44be 6e3a 8fbd
000000d0: e080 11be 4b0c 243e 880c 7b3d 5735 b13d
000000e0: ca5e 773d f1ee a73a 5499 203e 9131 0fbe
000000f0: 0fbe 883c 760c 01be 065b 603d 48b0 96bd
00000100: 4445 503d 3557 4abd d2f6 193e 4ef4 fdbd
00000110: 910a 02be bc22 f7bd aa68 293e 8337 573d
00000120: 065e 463e 84c9 18be dba2 39be d99c 10be
00000130: d01e f4bd 49f3 b23d 0b59 a23d 5ffa 2e3e
00000140: f668 b5bd b84f 0fbe 7e7b ca3d 2e25 a4bd
00000150: fde1 e03d d392 3cbd 4ebc e03d 99f0 24be
00000160: 4841 d4bd 15b0 503d e5ce 3b3d c6f6 2fbd
00000170: 9274 f73d c684 013e 7dc8 11be 09b4 d6bd
00000180: 446e 2a3e b53d 97bd 63cd 9cbd 24c9 47be
00000190: 94e4 e2bd e6d5 483d 4ce7 6cbc 215d 03be
000001a0: 8683 a33c 23dd edbd 2da3 14be fae5 a8bd
000001b0: ba43 27be 7b4c eebd 433e 4d3e 7d93 033d
000001c0: 11b1 6a3d 8c02 36be 58c9 04be 3872 87bd
000001d0: 6d3e 033d 08c8 28be 366b 9cbd 647c e4bd
000001e0: 703a 7ebc c63c b0bd 3c7e f4bc 5e00 0ebe
000001f0: 7b46 0abe df55 f0bd 8615 8cbd 4891 1dbe
00000200: f858 233e 1527 24bd 8fe7 293e cb62 773d
00000210: 3680 23be a559 0c3e c6a4 46bd 5516 a4bd
00000220: 934f 25be d6dd 51be 158a 6a3d 9816 10bd
00000230: 7048 9a3d a0ed 1bbe b910 1c3e edde 0abe
00000240: a64e 14bd ebce 173d fead c43d 041c 213e
00000250: 3795 353e b655 1abe cea3 593d 9318 9fbd
00000260: 3bcb 84bc 47cd 1abe 57ea 2b3e bd47 18be
00000270: 514f c23d 6021 733d 3c47 5d3d 78ec eebd
00000280: 56e4 253e f9fb ec3c c714 e53c eb90 26be
00000290: bb10 b03d 7028 efbc 9684 abbd 2312 2d3e
000002a0: fcb9 373d 6368 cabd c3d7 b8bd 13f1 a6bc
000002b0: 63b2 c33d 1aac 74bd 6127 fabd 3156 a2bd
000002c0: 8eb6 1fbe 6d6c 873d 1ad5 153e 86c6 3bbe
000002d0: bbfd 233d 8afb c03d 2310 003d 40a4 91bd
000002e0: 4587 c73d 3915 cc3d 13b9 983d 3dfd fdbc
000002f0: 45f8 3abd ce2a f63c 03f4 b3bc 1c3e 2dbd
00000300: d54f fb3d 5dc1 293e 4de7 35bc 4ace 29bd
00000310: f709 bf3b a484 d339 37d3 703d 505e 893d
00000320: 7c9a 24be 625f 96bd f9fa 233e 9ab5 9a3d
00000330: da1a afbc a61e 01be a51c 02be 4c32 2fbe
00000340: 779d 7cbd 0ea6 863d efc8 033e 7bb8 c13d
00000350: 4d1a 28be c59a dbbd b6ac b6bc c3c0 463e
00000360: 1b4e f43c 4309 59bd efc1 a33d a9d3 95bd
00000370: 5229 02be 9abe 0e3e 023b a9bd e2e5 19bd
00000380: df73 3dbe f2c4 073e bdc9 153e 977f 903d
00000390: 274c 04be a93e 41be 6c6d 20be f611 1a3e
000003a0: d102 c43d c71d 283e 14c7 d23d 5813 4d3d
000003b0: abdf ec3a 4613 18be 3762 2cbe 6151 36be
000003c0: 1ea5 ac3d 7b22 b3bd 159b f6bc 7ce4 c1bd
000003d0: 4e96 8cbc 4f1a e8bd 793f edbd 747b 9c3d
000003e0: be63 35bd 1004 ed3d 9424 70bd 5f1c 12be
000003f0: d038 5ebd 4d5e e5bd 672c a0bd 93fc 45be

enc.net.0.bias f4 [32]
-0.0899313 0.16020949 0.14948931 0.057909068 0.012076008 -0.16226132 -0.020565981 0.18486634
0.04740653 0.015406342 -0.040605217 -0.0677334 0.11466019 0.011866439 0.12371959 -0.033939205
0.083235085 0.078927465 0.030843822 0.11989076 0.11983177 0.178136 0.14817233 -0.049255714
-0.16141641 0.035162866 -0.0023184405 -0.048693735 -0.032193683 0.009160253 0.13928606 0.06000814
00000000: e72d b8bd f50d 243e ba13 193e 0f32 6d3d
00000010: 73da 453c d527 26be fd79 a8bc 9a4d 3d3e
00000020: 592d 423d e26a 7c3c a851 26bd cfb7 8abd
00000030: f6d2 ea3d 746b 423c b260 fd3d d603 0bbd
00000040: 2877 aa3d b9a4 a13d 2fac fc3c 4989 f53d
00000050: 5c6a f53d 4969 363e 7dba 173e 5cc0 49bd
00000060: 584a 25be f006 103d faf0 17bb 1573 47bd
00000070: 86dd 03bd e314 163c 01a1 0e3e 18cb 753d

enc.net.1.weight f4 [32]
1.0005677 1.0045719 0.989305 0.98649204 1.0022498 1.0061959 1.0119903 0.9936618
0.98537874 0.9970388 1.0014964 0.99529326 0.9906492 0.99452096 0.9963965 1.0047613
1.0029367 1.022168 1.0069367 1.0033835 0.99746495 0.9902298 0.9881787 1.008221
1.0014538 0.99300647 1.0001788 1.0154442 0.99500334 0.99792415 1.001553 1.0021739
00000000: 9a12 803f d095 803f 1843 7d3f be8a 7c3f
00000010: b949 803f 07cb 803f e688 813f 9f60 7e3f
00000020: c841 7c3f ef3d 7f3f 0931 803f 8acb 7e3f
00000030: 309b 7d3f ed98 7e3f d713 7f3f 059c 803f
00000040: 3b60 803f 67d6 823f 4de3 803f df6e 803f
00000050: dd59 7f3f b37f 7d3f 47f9 7c3f 630d 813f
00000060: a32f 803f ac35 7e3f dc05 803f 13fa 813f
00000070: 8ab8 7e3f f577 7f3f e432 803f 3c47 803f

enc.net.1.bias f4 [32]
-0.0045547597 0.0069344495 -0.007023031 -0.0052951183 -0.004993123 -0.00053898315 -0.0023084949 -0.007440288
-0.010982782 -0.019370735 -0.007892176 0.009313141 -0.021498356 -0.001466289 -0.0025332703 0.005902999
0.0048461542 0.015695155 0.0072192894 -0.00023065502 -0.0018206299 -0.008019321 -0.019409508 0.0005733395
-0.0034747035 -0.00028853706 -0.0019061598 0.01379948 -0.009664588 -0.005048637 0.0033542411 0.001159321
00000000: 1840 95bb 613a e33b 7421 e6bb ac82 adbb
00000010: 5a9d a3bb 8c4a 0dba 1e4a 17bb a9cd f3bb
00000020: 20f1 33bc 60af 9ebc 2f4e 01bc 2596 183c
00000030: 521d b0bc 7f30 c0ba 3905 26bb f26d c13b
00000040: 7dcc 9e3b 2093 803c ca8f ec3b fcdb 71b9
00000050: 34a2 eeba 7863 03bc b000 9fbc 2a4c 163a
00000060: dab7 63bb ca46 97b9 1cd8 f9ba 3717 623c
00000070: 3858 1ebc 096f a5bb d4d2 5b3b 5cf4 973a

enc.net.1.running_mean f4 [32]
-0.12728305 0.1283881 0.14655071 0.05648564 0.064433366 -0.160272 -0.00038997704 0.18875392
0.030525126 0.035284534 -0.018158725 -0.074611016 0.14530882 0.031492483 0.11091756 -0.0017276937
0.06668217 0.05440582 0.008504506 0.10476095 0.11583681 0.19449823 0.16440926 -0.010311322
-0.16074905 0.047169052 -0.0039556418 -0.06888017 -0.01987199 0.022491114 0.121659026 0.075464964
00000000: 7d56 02be 2c78 033e 6411 163e 7d5d 673d
00000010: a4f5 833d 581e 24be d575 ccb9 b548 413e
00000020: d40f fa3c 8486 103d 9bc1 94bc a9cd 98bd
00000030: d6cb 143e 43fe 003d bf28 e33d c873 e2ba
00000040: a990 883d a3d8 5e3d 7c56 0b3c e98c d63d
00000050: d93b ed3d 8b2a 473e e75a 283e d2f0 28bc
00000060: 669b 24be 5634 413d 549e 81bb 0c11 8dbd
00000070: 95ca a2bc 493f b83c 5e28 f93d 608d 9a3d

enc.net.1.running_var f4 [32]
1.0521075 0.3887382 0.06970199 0.43323767 1.0230535 0.20126082 0.28626093 0.072987854
0.25755128 0.25415727 0.42104778 0.2498706 0.7613345 0.27746055 0.1655762 0.67840844
0.16841778 0.41422412 0.4038926 0.14490105 0.21166347 0.51443464 0.32887745 0.63849735
0.10305409 0.60391957 0.14276487 0.22065377 0.20290367 0.18608221 0.22299607 0.66800195
00000000: 75ab 863f b108 c73e ebbf 8e3d 54d1 dd3e
00000010: 6bf3 823f 5117 4e3e cb90 923e a87a 953d
00000020: c3dd 833e e720 823e 9393 d73e 14de 7f3e
00000030: d1e6 423f 4f0f 8e3e cf8c 293e 2dac 2d3f
00000040: b675 2c3e 2f15 d43e 03cb ce3e f160 143e
00000050: 4fbe 583e fdb1 033f a062 a83e 9074 233f
00000060: 060e d33d 799a 1a3f f430 123e 10f3 613e
00000070: fbc5 4f3e 568c 3e3e 1559 643e 2d02 2b3f

enc.net.3.weight f4 [32, 32, 3, 3]
-0.019212887 -0.024660416 -0.01506567 -0.020759562 0.054825116 0.033116646 0.051559135 -0.0016281715
0.010109467 0.025059128 -0.05205765 0.009108763 -0.007557314 -0.037802037 -0.049842667 0.05075845
0.045570225 0.027283385 0.05850435 -0.017355096 -0.006119506 0.02935885 -0.001367297 -0.0021614055
-0.046537817 0.020991797 -0.033749517 0.006871033 0.061872326 -0.014846883 -0.019330291 0.034516234
-0.024188215 -0.0015864009 0.057954475 -0.022593873 -0.029827533 -0.019500697 -0.0045450516 -0.015984809
-0.017530374 0.034604065 0.021803927 -0.00586159 -0.0341047 -0.018549252 -0.022911062 -0.018914035
-0.06493561 0.0068023372 -0.058502764 -0.046538036 -0.044653635 0.024496755 -0.022643413 -0.016195266
0.054827366 0.045278322 0.043650683 -0.04483286 -0.02977332 -0.013051915 0.05873264 0.025122251
-0.025447076 0.020002328 -0.038704854 -0.003600052 -0.010279167 0.064178206 0.03300837 -0.0028064302
0.0062516076 -0.024062775 0.015379633 0.027037608 0.018104965 -0.020973094 0.051944893 -0.00926747
-0.023850122 0.037648007 0.05074638 0.05980799 0.016100664 -0.017240424 0.027369497 0.05574668
-0.04994596 -0.00010157918 -0.02118226 0.0273507 0.040738136 0.007794281 0.008429693 0.04031095
0.0080759805 -0.036807787 0.05974359 -0.031104788 -0.008389564 0.0020293067 -0.004387812 -0.055597648
0.025584295 -0.026944172 -0.029136367 0.014342708 -0.027348977 -0.023437714 -0.017190129 -0.02045507
-0.021846713 -0.014720553 0.020245647 -0.041998092 -0.030039178 0.015596823 0.027777752 0.04396794
-0.024016686 0.040531002 0.050497804 0.043023743 -0.039868843 -0.012626629 -0.04665947 -0.036087137
0.031895287 -0.004629761 0.028729016 -0.0322273 0.011156478 -0.03641619 0.027708218 -0.015929516
-0.0035151804 -0.042110227 0.0071545495 0.06524046 0.033029202 -0.023206353 0.011873256 0.0026816383
-0.04387428 0.051140703 0.0071657253 0.0060507893 -0.024743117 -0.03304786 0.008038689 0.021271309
0.008172467 -0.026298655 0.055499263 -0.008105698 -0.035301607 -0.028317798 0.05735957 0.00046080153
-0.009008954 -0.025569163 -0.013629027 -0.04847797 -0.044941522 0.039611716 0.055183213 0.061313488
-0.040713184 0.031149687 -0.034400526 0.042199176 0.04444686 0.047528118 0.036112987 0.01751482
-0.012125656 0.02965104 -0.024182053 0.024231685 -0.01019785 0.0080759125 -0.042399433 -0.012686992
-0.028303757 -0.017810913 -0.03318894 -0.04492868 0.01450172 0.03496117 0.05028448 0.030109698
-0.03331986 -0.060487755 0.018816695 0.03476698 -0.047423385 0.024465347 0.052621793 0.009378821
-0.03411102 0.047029592 0.029277489 0.037159264 -0.0353025 0.04424759 -0.034105655 0.07130346
-0.015014174 0.046381485 0.021523058 0.022445805 -0.00100074 0.035578392 -0.0154078305 -0.045779794
-0.01879309 0.05594815 -0.01231309 0.025165984 -0.00778366 0.04929881 0.034450233 0.024794377
-0.03211435 -0.043436036 0.002602434 -0.03001138 0.055878665 -0.05205843 0.036142852 0.063958526
0.02965189 0.028023895 -0.056461155 0.061176885 -0.011205753 -0.06942566 0.05445127 -0.039501082
-0.009344893 0.0579237 -0.043535504 -0.039198294 0.013361879 -0.0058551785 0.009645292 -0.050150827
-0.004072897 -0.029768907 -0.030575229 -0.057956945 0.034215417 0.016462423 -0.0438421 0.045053825
00000000: 5864 9dbc a404 cabc 00d6 76bc f50f aabc
00000010: 4d90 603d 52a5 073d ac2f 533d 5f68 d5ba
00000020: 2ea2 253c cd48 cd3c 673a 55bd ec3c 153c
00000030: 58a3 f7bb 4fd6 1abd d327 4cbd 18e8 4f3d
00000040: d8a7 3a3d 6881 df3c 42a2 6f3d 462c 8ebc
00000050: 2386 c8bb f981 f03c e036 b3ba 5ea6 0dbb
00000060: 709e 3ebd fdf6 ab3c ef3c 0abd 6726 e13b
00000070: d66d 7d3d 5740 73bc 8f5a 9ebc e560 0d3d
00000080: 5d26 c6bc c8ee cfba ac61 6d3d c916 b9bc
00000090: df58 f4bc edbf 9fbc a8ee 94bb 93f2 82bc
000000a0: dc9b 8fbc febc 0d3d 269e b23c 9512 c0bb
000000b0: 5fb1 0bbd 9af4 97bc fbaf bbbc 9bf1 9abc
000000c0: f6fc 84bd 24e6 de3b 98a0 6fbd ab9e 3ebd
000000d0: bbe6 36bd 6bad c83c ae7e b9bc efab 84bc
000000e0: a992 603d c375 393d 0fcb 323d a9a2 37bd
000000f0: 2de7 f3bc b3d7 55bc a391 703d 2ecd cd3c
00000100: 6376 d0bc ecdb a33c fb88 1ebd daee 6bbb
00000110: f469 28bc dd6f 833d c933 073d 16ec 37bb
00000120: 49da cc3b 4c1f c5bc dbfa 7b3c f97d dd3c
00000130: dd50 943c c4cf abbc 2bc4 543d 96d6 17bc
00000140: 5561 c3bc cc34 1a3d 70db 4f3d 39f9 743d
00000150: 8ae5 833c ca3b 8dbc ff35 e03c a156 643d
00000160: 2394 4cbd e806 d5b8 6b86 adbc 930e e03c
00000170: 08dd 263d 2b67 ff3b b21c 0a3c 181d 253d
00000180: 1e51 043c c3c3 16bd b2b5 743d 78cf febc
00000190: 6274 09bc 1efe 043b a3c7 8fbb 5cba 63bd
000001a0: 2896 d13c 06ba dcbc 64af eebc adfd 6a3c
000001b0: f60a e0bc 7300 c0bc 50d2 8cbc 6491 a7bc
000001c0: e1f7 b2bc 792e 71bc 33da a53c 3106 2cbd
000001d0: b914 f6bc d189 7f3c 2b8e e33c ba17 343d
000001e0: a4be c4bc d603 263d c9d6 4e3d aa39 303d
000001f0: 834d 23bd ecdf 4ebc 001e 3fbd 1bd0 13bd
00000200: a2a4 023d 40b5 97bb 1d59 eb3c c600 04bd
00000210: a9c9 363c 2529 15bd 58fc e23c 9e7e 82bc
00000220: f15e 66bb c67b 2cbd b670 ea3b ca9c 853d
00000230: a149 073d 401b bebc 0c88 423c 6dbe 2f3b
00000240: 84b5 33bd ea78 513d 76ce ea3b b345 c63b
00000250: 14b2 cabc 315d 07bd b5b4 033c 2b41 ae3c
00000260: d0e5 053c 4770 d7bc 3253 633d c3cd 04bc
00000270: 6b98 10bd bafa e7bc def1 6a3d bc97 f139
00000280: 4b9a 13bc 6c76 d1bc 484c 5fbc d690 46bd
00000290: 9a14 38bd e53f 223d cb07 623d da23 7b3d
000002a0: dec2 26bd a12d ff3c 91e7 0cbd 0bd9 2c3d
000002b0: e90d 363d d8ac 423d 36eb 133d 3d7b 8f3c
000002c0: b0aa 46bc bde6 f23c 7119 c6bc 8781 c63c
000002d0: e214 27bc d550 043c 07ab 2dbd 1add 4fbc
000002e0: 48dd e7bc 31e8 91bc 20f1 07bd 2307 38bd
000002f0: 9f98 6d3c 7233 0f3d 19f7 4d3d 9da8 f63c
00000300: 687a 08bd 02c2 77bd 7825 9a3c d267 0e3d
00000310: 063f 42bd 8d6b c83c f389 573d a0a9 193c
00000320: ffb7 0bbd 1aa2 403d 58d7 ef3c 5034 183d
00000330: 5b99 10bd f63c 353d 5fb2 0bbd 8c07 923d
00000340: 03fe 75bc 83fa 3d3d 2051 b03c 44e0 b73c
00000350: 432b 83ba a6ba 113d 2071 7cbc 9883 3bbd
00000360: f7f3 99bc e329 653d d8bc 49bc e528 ce3c
00000370: 130e ffbb 8ded 493d b01b 0d3d 941d cb3c
00000380: 568a 03bd fce9 31bd 998d 2a3b 6dda f5bc
00000390: 07e1 643d 383b 55bd 870a 143d b0fc 823d
000003a0: 85e8 f23c 5e92 e53c d043 67bd 9d94 7a3d
000003b0: 5698 37bc 0a2f 8ebd 4b08 5f3d e3cb 21bd
000003c0: 521b 19bc 6741 6d3d 4952 32bd 648e 20bd
000003d0: c8eb 5a3c ccdc bfbb 4907 1e3c f46a 4dbd
000003e0: f075 85bb ecdd f3bc e778 fabc 4364 6dbd
000003f0: 7725 0c3d 34dc 863c c693 33bd 5c8a 383d

enc.net.3.bias f4 [32]
-0.05251646 0.05731516 0.04108673 -0.04604749 0.045998264 -0.054886527 0.038831346 0.04089978
0.038042467 0.025048556 -0.035517063 -0.025519917 0.012592928 0.023256544 0.050829373 0.001958284
0.025701197 -0.044638876 -0.012179903 0.03560199 0.004944144 0.046270967 -0.046443306 -0.03912989
0.01890515 -0.002369525 -0.04973865 0.025111906 0.0020253186 0.014121527 0.013558284 -0.04118968
00000000: 801b 57bd 4dc3 6a3d 8f4a 283d 4b9c 3cbd
00000010: ad68 3c3d b2d0 60bd 9e0d 1f3d 8786 273d
00000020: 6bd2 1b3d a132 cd3c 577a 11bd 250f d1bc
00000030: 9152 4e3c 8284 be3c 7632 503d 8e56 003b
00000040: 518b d23c 41d7 36bd 378e 47bc 64d3 113d
00000050: 7c02 a23b a086 3d3d 563b 3ebd aa46 20bd
00000060: f9de 9a3c 084a 1bbb c1ba 4bbd 7cb7 cd3c
00000070: 35bb 043b fa5d 673c 9123 5e3c 83b6 28bd

enc.net.4.weight f4 [32]
1.0000293 0.9852653 0.9945513 1.0000678 0.9776757 0.998866 0.9900555 0.9916151
1.005182 1.0085402 0.99362415 1.0086173 0.99587023 0.99746144 0.9922139 1.0071343
1.0109301 1.004797 0.9941738 1.0069894 0.9938608 1.0050474 0.9831967 0.99641854
1.0049548 1.0007573 1.0012599 0.9951257 0.9951535 0.9997627 1.0040141 0.9959661
00000000: f600 803f 593a 7c3f ea9a 7e3f 3902 803f
00000010: f448 7a3f afb5 7f3f 4774 7d3f 7dda 7d3f
00000020: cea9 803f d817 813f 275e 7e3f 5f1a 813f
00000030: 5af1 7e3f a259 7f3f bb01 7e3f c7e9 803f
00000040: 2866 813f 309d 803f 2d82 7e3f 07e5 803f
00000050: a96d 7e3f 65a5 803f c7b2 7b3f 4915 7f3f
00000060: 5ca2 803f d118 803f 4929 803f 8fc0 7e3f
00000070: 61c2 7e3f 73f0 7f3f 8983 803f a2f7 7e3f

enc.net.4.bias f4 [32]
-0.0059068757 -0.015938055 -0.0208615 -0.0010119978 -0.0064607305 -0.00060016505 -0.00434015 -0.003771019
0.0066836705 0.0035860674 -0.011545786 -0.00045436344 -0.0007001213 -0.015284725 -0.015432602 0.00612212
-0.007833255 0.012227418 0.0073233326 0.0024939321 -0.012059367 0.0039074756 -0.009043454 -0.0037823978
-0.009047302 -0.0018516168 0.008345585 0.0005467032 -0.00058199855 -0.014018176 -0.010942437 0.0077486266
00000000: 778e c1bb 8690 82bc bde5 aabc 03a5 84ba
00000010: 89b4 d3bb 6554 1dba d137 8ebb 3323 77bb
00000020: b102 db3b 3a04 6b3b 892a 3dbc a137 eeb9
00000030: 5888 37ba c96c 7abc 06d9 7cbc 119c c83b
00000040: 0e57 00bc 8255 483c 91f8 ef3b 3d71 233b
00000050: a794 45bc 480a 803b ff2a 14bc 1be2 77bb
00000060: 233b 14bc f3b1 f2ba ecbb 083c a150 0f3a
00000070: 4391 18ba 7eac 65bc e847 33bc 31e8 fd3b

enc.net.4.running_mean f4 [32]
0.2948932 0.43777162 0.6835084 -0.6006037 -0.76675075 0.052604154 -0.19368312 -0.1573705
0.03383353 -0.18270223 0.30782124 0.11487947 -0.45954585 0.30011234 0.795089 0.13545015
0.36542997 -0.23579997 -0.56327426 0.4997379 0.44455624 -0.2947052 0.3045201 -0.47946197
-0.040369686 0.61905247 0.10162971 0.16797413 0.54536307 0.7013455 0.18333986 -0.5635619
00000000: 3efc 963e 9a23 e03e 68fa 2e3f 2ac1 19bf
00000010: c749 44bf 7477 573d de54 46be bb25 21be
00000020: 0795 0a3d 4b16 3bbe bf9a 9d3e ed45 eb3d
00000030: 9849 ebbe 53a8 993e f48a 4b3f 72b3 0a3e
00000040: a319 bb3e 8c75 71be be32 10bf a5dd ff3e
00000050: e09c e33e 9ae3 96be 0fea 9b3e 0a7c f5be
00000060: af5a 25bd 397a 1e3f 3d23 d03d 6901 2c3e
00000070: ea9c 0b3f 618b 333f 72bd 3b3e 9845 10bf

enc.net.4.running_var f4 [32]
0.29434687 0.23942779 0.40664613 0.35810396 0.86741024 0.3279088 0.3339334 0.5427441
0.37777904 0.19586274 0.44226253 0.14233474 0.30131054 0.18058355 0.30376694 0.23729394
0.115657486 0.19888292 0.24631658 0.13817121 0.28965396 0.17796831 0.20441405 0.28221774
0.13098782 0.45754895 0.22944087 0.24931376 0.201314 0.48534733 0.1568994 0.33574998
00000000: a2b4 963e 8f2c 753e ec33 d03e 6759 b73e
00000010: 990e 5e3f aae3 a73e 52f9 aa3e 47f1 0a3f
00000020: 416c c13e 3e90 483e 3c70 e23e 33c0 113e
00000030: 6045 9a3e e5ea 383e 5787 9b3e 2ffd 723e
00000040: d5dd ec3d f7a7 4b3e 6a3a 7c3e c17c 0d3e
00000050: 864d 943e 533d 363e eb51 513e d87e 903e
00000060: ac21 063e db43 ea3e 8cf2 6a3e 1b4c 7f3e
00000070: 4225 4e3e 727f f83e 3caa 203e 6ce7 ab3e

enc.net.7.weight f4 [64, 32, 3, 3]
-0.047644664 -0.05437279 0.037068304 -0.042428926 0.044315785 -0.024827406 0.013504028 0.054639958
-0.03363463 -0.05675889 0.0072297524 -0.043618295 0.0279113 0.018692771 0.038192786 -0.007947939
-0.040799852 -0.057182893 -0.04123138 0.049431235 -0.016007053 -0.006482443 -0.01802172 -0.03665036
0.044363927 -0.019180382 -0.033297192 0.05460519 0.034950715 0.030547349 0.0433462 -0.037114233
0.018832669 -0.018952426 -0.00085463515 0.023584241 -0.007346064 0.070498265 0.013694591 0.04401998
0.016920893 -0.04454688 -0.027356297 -0.03976845 0.015996346 -0.049342744 -0.059965722 -0.0012901395
-0.06233135 -0.044604093 -0.051459245 0.014329558 0.03983371 0.0038341845 -0.03126721 0.044892054
0.052138638 -0.0056178835 0.05239998 0.014965794 -0.044589937 -0.017317956 -0.053437084 0.0023978571
0.01696693 -0.07287994 -0.03572583 -0.009874523 0.038908076 -0.046575986 -0.018153258 -0.014964124
-0.03043764 -0.027272848 -0.016842593 -0.020241685 -0.021246552 0.0030801606 -0.0067286873 -0.031331494
0.032340188 0.038615238 -0.0129821235 -0.016036188 -0.06618135 -0.052985877 -0.0138416905 -0.021651065
0.0071103843 -0.040288582 -0.018279403 0.003118375 0.0526103 0.0424758 -0.043023136 -0.00935514
-0.014721562 -0.007473425 0.018629607 -0.03135093 -0.017955672 -0.06709093 -0.02610168 -0.06470625
0.014237281 -0.050105624 -0.03446621 -0.0484734 0.04158975 -0.019627005 0.046224996 -0.03254876
0.04146831 -0.018226258 -0.04787694 0.045372322 -0.04726174 -0.039206 0.028109169 -0.009791523
-0.0034769701 0.055831432 -0.050664026 -0.025361829 0.019727716 -0.017173817 -0.003754894 -0.02593674
-0.01568404 0.041412376 -0.018614212 0.015075751 0.038622696 0.039187938 0.020079307 0.039140604
-0.017685296 0.0011547464 -0.02960177 -0.061950956 0.04319961 -0.051373858 -0.032632027 -0.018119978
-0.05642042 -0.04819962 -0.03332788 0.00885539 -0.051092695 -0.043890696 -0.042756375 -0.05139846
0.0044773077 0.007895279 0.02304202 0.056145847 -0.03225611 -0.031040894 0.012728103 0.050695226
0.017187666 -0.007814541 0.027712392 -0.049328025 -0.032418493 -0.021787398 -0.05081346 -0.043564137
-0.040656608 0.02099371 0.02115653 -0.016004749 -0.027558079 -0.011212968 0.027968474 -0.052845277
0.033248674 0.014551528 -0.033122778 0.029409239 -0.006507995 -0.032572478 0.047151383 0.011295333
0.038167752 -0.02472583 -0.05427011 0.04393755 -0.0021820718 0.022393527 -0.0204509 0.021854045
-0.047051888 0.0012258678 0.040868267 -0.01270555 0.0514008 0.019231495 0.03175129 0.06085034
-0.012609262 -0.011476884 0.0390068 -0.029472565 -0.041631732 0.040978517 -0.0507109 -0.026656467
0.015599292 0.010719745 -0.021559337 -0.004205296 0.049063597 -0.030644823 0.038719114 -0.0019787748
-0.009934298 -0.050714795 -0.0053221267 0.064283535 -0.02436146 -0.03500627 0.0017300319 0.045713242
-0.012700933 0.053771887 0.05247254 0.049631346 -0.03670517 -0.0460017 -0.059722774 -0.01589486
-0.043575738 0.02148492 -0.017913304 0.026270509 -0.07870602 -0.057663403 -0.019006912 0.0072175968
0.053855456 -0.00025655533 0.05286511 -0.009408663 -0.004099797 -0.01720717 -0.0064137606 -0.008278364
-0.03822386 0.0070638787 -0.0086449 -0.024452094 -0.04882189 -0.062661 -0.019461993 -0.051717583
00000000: 0d27 43bd 01b6 5ebd efd4 173d f4c9 2dbd
00000010: 7884 353d d862 cbbc 0040 5d3c 26ce 5f3d
00000020: 77c4 09bd 037c 68bd 8fe7 ec3b 19a9 32bd
00000030: 3da6 e43c 9521 993c 0a70 1c3d 1338 02bc
00000040: bf1d 27bd 9c38 6abd 3ce2 28bd 6878 4a3d
00000050: 3921 83bc ac6a d4bb 49a2 93bc b01e 16bd
00000060: f3b6 353d 2d20 9dbc a362 08bd b1a9 5f3d
00000070: 7b28 0f3d 6f3e fa3c c98b 313d 1805 18bd
00000080: f846 9a3c 1e42 9bbc 9809 60ba bd33 c13c
00000090: 40b7 f0bb 6561 903d 475f 603c 4b4e 343d
000000a0: af9d 8a3c ca76 36bd 501a e0bc 3ee4 22bd
000000b0: c50a 833c 9e1b 4abd 9e9e 75bd e619 a9ba
000000c0: 284f 7fbd c8b2 36bd eec6 52bd 86c6 6a3c
000000d0: ac28 233d f146 7b3b 0c12 00bd bbe0 373d
000000e0: 538f 553d 3916 b8bb 5da1 563d 1733 753c
000000f0: f0a3 36bd 63de 8dbc d8e0 5abd 5e25 1d3b
00000100: 3bfe 8a3c 1442 95bd 3f55 12bd c0c8 21bc
00000110: 135e 1f3d 76c6 3ebd 24b6 94bc 162c 75bc
00000120: 5c58 f9bc 4f6b dfbc 7af9 89bc e4d1 a5bc
00000130: 400d aebc 85dc 493b 527c dcbb 7455 00bd
00000140: 2577 043d 032b 1e3d f9b2 54bc 535e 83bc
00000150: 168a 87bd b807 59bd 42c8 62bc 935d b1bc
00000160: 3afe e83b a405 25bd b0be 95bc a75d 4c3b
00000170: e67d 573d 1bfb 2d3d 0739 30bd 4d46 19bc
00000180: b532 71bc a2e3 f4bb 1e9d 983c d569 00bd
00000190: c617 93bc f866 89bd 31d3 d5bc b684 84bd
000001a0: 7c43 693c 8e3b 4dbd 712c 0dbd 0b8c 46bd
000001b0: 045a 2a3d d0c8 a0bc 6c56 3d3d d951 05bd
000001c0: adda 293d 3c4f 95bc 9c1a 44bd 54d8 393d
000001d0: 8795 41bd 7896 20bd 3345 e63c a06c 20bc
000001e0: e1dd 63bb 80af 643d 1585 4fbd 9cc3 cfbc
000001f0: 059c a13c 1bb0 8cbc ab14 76bb 4979 d4bc
00000200: d17b 80bc 06a0 293d d57c 98bc 4800 773c
00000210: d532 1e3d 8883 203d 5c7d a43c e651 203d
00000220: c1e0 90bc dc5a 973a 697f f2bc 49c0 7dbd
00000230: 13f2 303d 656d 52bd 29a9 05bd 5970 94bc
00000240: 1919 67bd f76c 45bd d182 08bd 3316 113c
00000250: 9346 51bd bbc6 33bd 4f21 2fbd 3187 52bd
00000260: 61b6 923b 335b 013c 9ec2 bc3c 30f9 653d
00000270: fc1e 04bd 7949 febc 8989 503c cca5 4f3d
00000280: 26cd 8c3c 9008 00bc 1905 e33c 2f0c 4abd
00000290: 41c9 04bd 7c7b b2bc c621 50bd 4f70 32bd
000002a0: 8b87 26bd 00fb ab3c 7650 ad3c 641c 83bc
000002b0: 7bc1 e1bc 99b6 37bc 241e e53c 4a74 58bd
000002c0: c32f 083d 8869 6e3c c0ab 07bd a5eb f03c
000002d0: 0541 d5bb b86a 05bd cf21 413d 0f10 393c
000002e0: ca55 1c3d d38d cabc 564a 5ebd dcf7 333d
000002f0: 1701 0fbb a172 b73c a588 a7bc 4107 b33c
00000300: 7bb9 40bd 4cad a03a 7c65 273d f02a 50bc
00000310: a589 523d 5e8b 9d3c a40d 023d 353e 793d
00000320: 1497 4ebc 8a09 3cbc 98c5 1f3d 7370 f1bc
00000330: 0986 2abd 17d9 273d 3cb6 4fbd aa5e dabc
00000340: 2c94 7f3c dfa1 2f3c 359d b0bc 94cc 89bb
00000350: e9f6 483d da0a fbbc ef97 1e3d 55ae 01bb
00000360: 77c3 22bc 51ba 4fbd 3c65 aebb 16a7 833d
00000370: af91 c7bc bc62 0fbd 3dc2 e23a cf3d 3b3d
00000380: 9317 50bc e93f 5c3d 72ed 563d 3d4a 4b3d
00000390: 2958 16bd 476c 3cbd de9f 74bd f035 82bc
000003a0: 797c 32bd 2501 b03c ecbe 92bc 4035 d73c
000003b0: 9f30 a1bd 7630 6cbd 62b4 9bbc 9781 ec3b
000003c0: 8a97 5c3d 4682 86b9 1689 583d cb26 1abc
000003d0: 9757 86bb 0df6 8cbc 862a d2bb faa1 07bc
000003e0: 9f90 1cbd 1c78 e73b 57a3 0dbc c24f c8bc
000003f0: 76f9 47bd 6954 80bd c26e 9fbc d1d5 53bd

enc.net.7.bias f4 [64]
-0.04478732 -0.03699536 0.032831945 0.039274823 0.013628406 -0.023190802 -0.030954735 -0.01214615
0.013630967 0.03384463 0.020471612 0.029069077 0.027995557 0.019110624 0.00053372124 0.014514568
-0.024654064 0.013124986 -0.041335266 -0.04569699 -0.021830704 -0.04162361 -0.0072798994 0.05806854
0.03346774 0.0076454813 -0.018060388 -0.025323119 0.0038412386 -0.013204615 -0.009624829 -0.047005344
0.035910986 0.005036798 -0.02202471 0.007448158 -0.01851624 -0.046639893 -0.0097298175 -0.05871935
-0.019151859 0.019514201 -0.046251696 0.02202616 0.05862481 0.014964261 -0.04034812 -0.020115793
-0.015260506 -0.005171902 -0.04293735 -0.015347185 0.017687147 -0.054230142 -0.04328352 0.02778476
-0.012735184 -0.031027548 8.562988e-05 0.031778865 0.029779747 -0.009725308 -0.007452017 0.028013794
00000000: e972 37bd 7288 17bd ca7a 063d a3de 203d
00000010: ae49 5f3c a3fa bdbc c994 fdbc a500 47bc
00000020: 6b54 5f3c aba0 0a3d 15b4 a73c 4622 ee3c
00000030: f056 e53c e28d 9c3c 6de9 0b3a 83ce 6d3c
00000040: 52f7 c9bc 2e0a 573c 2b4f 29bd c42c 3bbd
00000050: 4ed6 b2bc 857d 2abd 398c eebb 47d9 6d3d
00000060: 7815 093d f286 fa3b 61f3 93bc 6e72 cfbc
00000070: 4abd 7b3b 2b58 58bc 75b1 1dbc ad88 40bd
00000080: 6617 133d b90b a53b 2a6d b4bc ae0f f43b
00000090: 5faf 97bc 7909 3fbd d069 1fbc b383 70bd
000000a0: 5ce4 9cbc 3fdc 9f3c 6b72 3dbd 3570 b43c
000000b0: 9220 703d a92c 753c 1244 25bd e0c9 a4bc
000000c0: 3407 7abc 0f79 a9bb 13df 2fbd c272 7bbc
000000d0: a3e4 903c 6d20 5ebd 0f4a 31bd dd9c e33c
000000e0: 3ca7 50bc 7c2d febc 3194 b338 8e2a 023d
000000f0: a8f4 f33c e656 1fbc 0d30 f4bb 2f7d e53c

enc.net.8.weight f4 [64]
0.9894548 1.0049591 0.98545545 1.0010096 1.0056835 0.9952482 0.99676144 1.0058068
1.0102506 1.0069437 0.9957374 0.9911573 0.995873 1.005058 1.0092674 0.98666674
0.9877774 0.9966078 1.0052406 0.99537563 0.997914 1.0021944 1.0035278 0.99375564
0.9873657 0.9943043 0.98167366 0.9952895 0.99246097 1.002522 0.99716574 0.996256
1.0008763 1.0123615 0.9915392 0.9881583 0.9954753 0.9985782 0.9974977 0.9923157
1.0000652 0.9845301 0.99643594 1.0037467 1.0171303 1.0128839 1.0075171 0.99359816
1.0046088 0.996965 1.0032235 1.0023847 0.99993837 0.9890561 0.9895734 0.9987362
1.0045999 1.0023901 0.9978626 1.0014127 1.0087122 1.0094788 0.99959874 1.0061978
00000000: e94c 7d3f 80a2 803f cf46 7c3f 1521 803f
00000010: 3dba 803f 96c8 7e3f c22b 7f3f 47be 803f
00000020: e44f 813f 88e3 803f a5e8 7e3f 7cbc 7d3f
00000030: 88f1 7e3f bea5 803f ad2f 813f 3196 7c3f
00000040: fbde 7c3f b021 7f3f b9ab 803f f0d0 7e3f
00000050: 4b77 7f3f e847 803f 9973 803f c566 7e3f
00000060: 00c4 7c3f ba8a 7e3f f74e 7b3f 4bcb 7e3f
00000070: ec11 7e3f a452 803f 4146 7f3f a20a 7f3f
00000080: b71c 803f 1095 813f 83d5 7d3f f1f7 7c3f
00000090: 78d7 7e3f d2a2 7f3f 025c 7f3f 6708 7e3f
000000a0: 2302 803f 2a0a 7c3f 6d16 7f3f c67a 803f
000000b0: 5331 823f 2ea6 813f 52f6 803f 735c 7e3f
000000c0: 0597 803f 1939 7f3f a169 803f 244e 803f
000000d0: f6fb 7f3f c832 7d3f af54 7d3f 2dad 7f3f
000000e0: bb96 803f 524e 803f ec73 7f3f 4b2e 803f
000000f0: 7b1d 813f 9a36 813f b4e5 7f3f 17cb 803f

enc.net.8.bias f4 [64]
0.001428768 0.0032564746 -0.014086826 -0.00035391108 0.0031244794 0.0006502728 -0.014203763 0.0053537074
0.009278102 -0.008411146 0.00097288535 -0.017306987 -0.0037033127 -0.011618287 -0.019398782 -0.016062293
-0.0055783056 -0.015836582 0.008401865 -0.00532411 -0.0107549755 -0.0032419371 0.00845796 -0.009798443
-0.010277997 -0.018089082 -0.013855133 -0.009825867 -0.00053897075 -0.011026321 0.0022844253 -0.028579598
-0.003822984 -0.013248095 -0.0032217384 -0.008687131 -0.0062209414 0.0028515586 0.002401228 -0.004344268
-0.009765469 -0.017213503 -0.012577605 0.009495621 0.0013460647 0.018958494 0.009118312 -0.0051294137
-0.013076237 -0.008669615 -0.015792957 -0.0011689258 -0.0006379045 -0.008985693 -0.017862821 -0.001849034
-0.01563361 0.0026187305 -0.0043398594 -0.017829273 -0.014492429 -0.010934212 -0.0072798044 0.001949724
00000000: 8045 bb3a 946a 553b 6ecc 66bc 248d b9b9
00000010: 11c4 4c3b 1277 2a3a e6b6 68bc 276e af3b
00000020: 2e03 183c e7ce 09bc 3b09 7f3a 62c7 8dbc
00000030: 47b3 72bb a15a 3ebc 32ea 9ebc 1295 83bc
00000040: 38ca b6bb b8bb 81bc faa7 093c df75 aebb
00000050: a335 30bc ae76 54bb 4193 0a3c a689 20bc
00000060: 0b65 28bc 8e2f 94bc a400 63bc acfc 20bc
00000070: b749 0dba bea7 34bc 4cb6 153b c31f eabc
00000080: 078b 7abb 8a0e 59bc cd23 53bb 7854 0ebc
00000090: 0ad9 cbbb 37e1 3a3b ec5d 1d3b 5c5a 8ebb
000000a0: 58ff 1fbc 5503 8dbc 4d12 4ebc 8593 1b3c
000000b0: 706e b03a d84e 9b3c f964 153c a414 a8bb
000000c0: b73d 56bc 000b 0ebc 3b60 81bc a436 99ba
000000d0: 0c39 27ba ba38 13bc 0d55 92bc 495b f2ba
000000e0: 0e12 80bc 029f 2b3b 6135 8ebb b20e 92bc
000000f0: a771 6dbc 6925 33bc 6d8b eebb e28d ff3a

enc.net.8.running_mean f4 [64]
-0.98917925 0.20036566 -0.05354943 -0.08497767 0.15933116 -0.54574937 -0.037070725 -0.51127774
0.27592677 0.2507933 -0.76054937 0.443997 -0.042641606 0.26880118 0.7047305 -0.4753959
-0.10729951 0.7735727 -0.33053505 -0.86050177 0.5983079 0.014782367 0.002864749 -0.12082583
0.32893556 -0.661079 -0.10264841 0.83170414 -0.20740213 0.032898996 -0.18255654 -0.047952197
-0.566929 -0.1936227 0.12732998 -0.43237013 0.34103128 -0.048628584 -0.16702363 0.4226428
0.41117233 0.19007795 0.7076733 -0.12291225 -0.038360853 -0.78451693 -0.5745023 -0.2866732
0.2951903 0.3259447 0.68122405 0.26265982 -0.15705493 -0.0051078177 0.5197211 0.03210773
0.10769376 -0.23241714 0.37431508 0.9184978 -0.260349 0.25333655 -0.76023 0.03274781
00000000: da3a 7dbf a82c 4d3e a656 5bbd c608 aebd
00000010: b527 233e 3bb6 0bbf 79d7 17bd 19e3 02bf
00000020: 4646 8d3e fb67 803e 5db3 42bf 9353 e33e
00000030: f7a8 2ebd 4fa0 893e 3869 343f 1767 f3be
00000040: d8bf dbbd dc08 463f e43b a9be d849 5cbf
00000050: b52a 193f be31 723c 83be 3b3b 8873 f7bd
00000060: 3e6a a83e 793c 29bf 5439 d2bd 90ea 543f
00000070: 3961 54be 19c1 063d 1af0 3abe 8669 44bd
00000080: 4222 11bf 0745 46be ca62 023e 9e5f ddbe
00000090: a79b ae3e c42e 47bd 3e08 2bbe a364 d83e
000000a0: 2e85 d23e cba3 423e 142a 353f 6bb9 fbbd
000000b0: 4520 1dbd 1ad6 48bf 9512 13bf d4c6 92be
000000c0: 2f23 973e 39e2 a63e b364 2e3f 597b 863e
000000d0: 02d3 20be 7b5f a7bb 710c 053f 6583 033d
000000e0: 8c8e dc3d c2fe 6dbe 3aa6 bf3e ac22 6b3f
000000f0: 774c 85be 54b5 813e 6f9e 42bf 9122 063d

enc.net.8.running_var f4 [64]
0.45863298 0.3827389 0.28619754 0.41385797 0.31580824 0.34868002 0.49470487 0.48358998
0.65024763 0.2521503 0.63782775 0.6326934 0.3018656 0.38037422 0.25749904 0.5873878
0.35725093 0.9355285 0.60511196 0.32793275 0.30035463 0.29172048 0.37961647 0.31945807
0.28835833 0.17976159 0.80504847 0.77804065 0.3723021 0.2762875 0.35816327 0.25164112
0.31248918 0.34293702 0.26656824 0.24181409 0.28593838 0.37389392 0.56014836 0.63247126
0.52269787 0.18556944 0.6923872 0.41153607 0.30245882 0.5963357 0.6781219 0.32582545
0.2073074 0.3073894 0.46279758 0.35380098 0.40230635 0.40504408 0.18038985 0.23340039
0.26483035 0.8361566 0.27160412 0.2452595 0.31763425 0.62866396 0.44188672 0.2646178
00000000: f1d1 ea3e 5af6 c33e 7c88 923e 31e5 d33e
00000010: 9eb1 a13e 3086 b23e f549 fd3e 1b99 f73e
00000020: a176 263f d819 813e ae48 233f 32f8 213f
00000030: 218e 9a3e 69c0 c23e ead6 833e 0c5f 163f
00000040: 98e9 b63e cc7e 6f3f 9ee8 1a3f cde6 a73e
00000050: 15c8 993e 635c 953e 175d c23e 0290 a33e
00000060: b4a3 933e 6c13 383e a817 4e3f ac2d 473f
00000070: 619e be3e 8e75 8d3e 2d61 b73e 1bd7 803e
00000080: 95fe 9f3e 7195 af3e a27b 883e 1d9e 773e
00000090: 8466 923e 066f bf3e e265 0f3f a3e9 213f
000000a0: 87cf 053f ea05 3e3e 4a40 313f dbb4 d23e
000000b0: e2db 9a3e 75a9 183f 6699 2d3f 98d2 a63e
000000c0: 6448 543e 2562 9d3e cef3 ec3e 6725 b53e
000000d0: 19fb cd3e f061 cf3e 1eb8 383e 8300 6f3e
000000e0: d897 873e 5c0e 563f b20f 8b3e 4e25 7b3e
000000f0: f5a0 a23e 1ff0 203f fa3e e23e fc7b 873e

enc.net.11.weight f4 [128, 64, 3, 3]
0.044293605 -0.021387106 0.0074060955 -0.014129392 0.021564515 0.0068261554 -0.02735246 -0.0065583666
0.020874938 -0.042972576 -0.04298773 0.0019817238 -0.03660529 -0.0035829986 -0.033852737 -0.04823943
0.036931865 0.028861376 -0.044639282 0.037707284 -0.015757488 0.024366982 0.02808897 0.0013853535
-0.025989968 0.027243828 0.0040239533 -0.012441873 -0.008813312 -0.030546285 -0.02931666 -0.04168203
-0.035784952 -0.024396569 0.019745436 0.008009433 -0.012999201 -0.041413806 -0.028828632 -0.047056317
-0.037462857 0.018177658 0.027301911 0.0050464976 0.0139054535 0.029978855 0.043215193 0.022077795
0.017806577 -0.0070890943 0.0018507632 -0.008347597 0.009365773 0.008761346 -0.0065709027 -0.03913694
0.020282488 -0.01231944 -0.03318238 -0.021469368 -0.036095783 -0.0041110846 0.03483991 0.022444278
-0.0033201796 0.0017352563 -0.04407203 -0.0329307 -0.037954092 -0.044057835 -0.0021370389 -0.016768886
0.01912064 0.042521473 -0.018540878 0.0130071705 -0.007378207 0.021872645 0.026506726 -0.019114085
0.01993168 0.015792929 -0.020071229 0.0076909494 0.037202623 -0.024491541 -0.0034877092 0.023743603
-0.007976635 -0.0046220697 0.0021370726 -0.03954507 -0.023367036 0.01962365 -0.04387003 -0.0106250495
-0.013965925 0.012705969 0.0055487473 -0.0057274187 0.03930521 -0.020800164 0.029645722 -0.024618056
0.023817834 -0.036778364 0.034271076 0.042633466 0.015274709 0.03424124 -0.013013155 7.9234924e-05
-0.032272812 0.045917645 -0.0077081257 -0.0015859443 0.049100704 -0.031827286 -0.023778532 0.032756973
0.0006745671 -0.024225747 -0.027513951 -0.044781495 -0.02358988 0.027129496 -0.040721674 -0.039920002
-0.011862123 0.018653974 -0.03285112 0.027849017 -0.0038009554 0.004132831 -0.028116463 0.011719155
0.008428886 -0.02398927 0.019628955 -0.0061077625 -0.030810263 -0.04340872 -0.014179248 -0.032647524
-0.017436964 0.0084716 -0.008803729 0.037842423 -0.040332414 -0.014591602 0.02474435 0.033564728
-0.014641748 -0.039528895 -0.03411644 0.026620064 0.043082483 -0.030586496 -0.007216211 -0.017515248
0.020839892 0.022450317 -0.04310971 -0.03678409 -0.025584731 0.026898148 -0.046977792 -0.031247674
-0.0039249244 -0.041607846 -0.0075061675 0.020958666 -0.009766128 -0.01923573 0.019437945 -0.037484244
-0.023670426 -0.027912097 -0.033110544 -0.023449369 0.0392077 0.03512615 0.02602051 -0.020907119
-0.013013726 -0.021682216 -0.00046653504 -0.00401986 0.03775026 0.025704596 0.02872826 0.0022629169
0.03884692 -0.023597794 0.04602441 0.033261407 -0.031620853 0.029158687 0.014896799 0.020329699
0.007300564 -0.014856279 0.03892247 0.011164664 -0.015988175 -0.003139049 0.021054022 -0.036355972
-0.013174472 0.029142503 0.04303824 -0.017940197 0.04247176 -0.015752079 -0.016259404 0.019020356
0.034260504 -0.022716984 0.011036229 0.030456753 0.030081848 0.00637152 0.010494054 -0.002923843
-0.010671948 0.041612867 0.027066303 0.044073675 -0.016093224 0.034377202 0.0054804413 0.021846479
-0.021930063 0.030588914 -0.029396357 -0.02856364 0.017814009 -0.013001641 -0.026272813 0.029788343
0.015003354 0.041542623 0.023674535 0.009080689 -0.018598875 -0.024703564 0.014593701 -0.007199589
-0.015486017 -0.04363699 -0.010318823 -0.01894033 0.028606847 -0.029016078 -0.029456185 0.00085860887
00000000: 366d 353d 0334 afbc d5ae f23b f77e 67bc
00000010: 11a8 b03c f1ad df3b 4412 e0bc 91e7 d6bb
00000020: eb01 ab3c 0304 30bd e713 30bd cfdf 013b
00000030: 6eef 15bd bed0 6abb 2ba9 0abd b596 45bd
00000040: de45 173d b16e ec3c aed7 36bd f472 1a3d
00000050: d915 81bc 449d c73c d71a e63c c094 b53a
00000060: eae8 d4bc 732e df3c 5edb 833b ffd8 4bbc
00000070: b665 10bc 343c fabc 7e29 f0bc c7ba 2abd
00000080: 3e93 12bd 50db c7bc 2ec1 a13c ff39 033c
00000090: 9afa 54bc 86a1 29bd 062a ecbc 20be 40bd
000000a0: a772 19bd 50e9 943c 42a8 df3c 175d a53b
000000b0: b3d3 633c 3796 f53c 6a02 313d 7edc b43c
000000c0: 19df 913c a24b e8bb 4f95 f23a 5cc4 08bc
000000d0: e672 193c c08b 0f3c ba50 d7bb 0e4e 20bd
000000e0: 7627 a63c 7ad7 49bc 3fea 07bd 87e0 afbc
000000f0: 2cd9 13bd 47b6 86bb 4bb4 0e3d 10dd b73c
00000100: 5f97 59bb 8a71 e33a df84 34bd 57e2 06bd
00000110: c075 1bbd fd75 34bd 900d 0cbb e75e 89bc
00000120: e3a2 9c3c ff2a 2e3d 0ae3 97bc 071c 553c
00000130: e3c4 f1bb 432e b33c a224 d93c 2495 9cbc
00000140: c347 a33c 2c60 813c 6b6c a4bc 5c04 fc3b
00000150: c761 183d 7ca2 c8bc 0d92 64bb f281 c23c
00000160: 6fb0 02bc bb74 97bb 210e 0c3b 03fa 21bd
00000170: 3a6c bfbc c7c1 a03c 10b1 33bd b014 2ebc
00000180: 56d1 64bc b22c 503c 44d2 b53b 12ad bbbb
00000190: 80fe 203d 1b65 aabc 96db f23c ceab c9bc
000001a0: 9e1d c33c e9a4 16bd d45f 0c3d 6ea0 2e3d
000001b0: c642 7a3c 8b40 0c3d 2135 55bc ed2a a638
000001c0: 7f30 04bd 2414 3c3d 7294 fcbb 76df cfba
000001d0: d21d 493d 545d 02bd 32cb c2bc 2d2c 063d
000001e0: 6fd5 303a 1375 c6bc f064 e1bc cd6c 37bd
000001f0: 903f c1bc ad3e de3c c5cb 26bd 2883 23bd
00000200: 5a59 42bc 38d0 983c e58e 06bd 9f23 e43c
00000210: 7319 79bb b36c 873b 7f54 e6bc b301 403c
00000220: 4f19 0a3c 2585 c4bc e7cc a03c a023 c8bb
00000230: ce65 fcbc 58cd 31bd 1450 68bc 69b9 05bd
00000240: f7d7 8ebc 77cc 0a3c 843d 10bc a800 1b3d
00000250: 9a33 25bd 9d11 6fbc aab4 ca3c 2b7b 093d
00000260: f1e3 6fbc 0de9 21bd aebd 0bbd 5212 da3c
00000270: 4277 303d 8890 fabc f775 ecbb 237c 8fbc
00000280: 6cb8 aa3c bae9 b73c cf93 30bd eaaa 16bd
00000290: 1297 d1bc 8159 dc3c c96b 40bd 1ffb ffbc
000002a0: a79c 80bb fd6c 2abd 4cf6 f5bb 82b1 ab3c
000002b0: 1c02 20bc 4094 9dbc 533c 9f3c 1489 19bd
000002c0: 7be8 c1bc e9a7 e4bc ec9e 07bd e418 c0bc
000002d0: 4198 203d 70e0 0f3d f728 d53c 6845 abbc
000002e0: 8637 55bc e79e b1bc 4699 f4b9 08b9 83bb
000002f0: 04a0 1a3d 7292 d23c 8757 eb3c 724d 143b
00000300: f31d 1f3d 2950 c1bc 1784 3c3d 1d3d 083d
00000310: de84 01bd 33de ee3c b411 743c 788a a63c
00000320: 9239 ef3b c067 73bc 2b6d 1f3d ffeb 363c
00000330: a2f9 82bc 81b8 4dbb 7c79 ac3c 00ea 14bd
00000340: bed9 57bc 42bc ee3c de48 303d 52f7 92bc
00000350: def6 2d3d 810a 81bc 7132 85bc 94d0 9b3c
00000360: be54 0c3d f818 babc 4dd1 343c 7180 f93c
00000370: 356e f63c 2fc8 d03b 41ef 2b3c f29d 3fbb
00000380: 65d9 2ebc 4172 2a3d 27ba dd3c 9986 343d
00000390: f0d5 83bc 1ccf 0c3d 4695 b33b 63f7 b23c
000003a0: ada6 b3bc 9a95 fa3c a1d0 f0bc 4bfe e9bc
000003b0: afee 913c d604 55bc 153a d7bc af06 f43c
000003c0: a1d0 753c 9928 2a3d 19f1 c13c 2cc7 143c
000003d0: ab5c 98bc 215f cabc 6b1a 6f3c 88ea ebbb
000003e0: 10b9 7dbc b3bc 32bd 4810 29bc c028 9bbc
000003f0: e858 ea3c 20b3 edbc 194e f1bc 4414 613a

enc.net.11.bias f4 [128]
-0.028408937 0.017224537 -0.018195998 -0.035079397 -0.032499094 0.016163401 0.012621883 0.039309543
-0.025398511 -0.026835922 0.013399852 0.022131449 0.00791297 0.035716098 0.040657148 0.039929137
0.027987026 -0.03641481 -0.038125195 -0.036358736 0.030929722 -0.008686484 0.0030071991 -0.04045911
-0.00055783865 -0.0086551905 0.012107051 0.0054123583 -0.02362832 -0.013522773 0.017335795 0.015441057
-0.02236311 0.025416851 -0.009194883 -0.028914234 0.0032421597 0.02243907 -0.00029551313 -0.01565859
0.004544147 0.005776311 -0.020578146 0.024657456 0.016657865 -0.013788199 -0.021880006 -0.010129404
-0.022860931 0.0025746392 -0.04078454 -0.024603706 0.03317402 -0.029219275 0.005725588 0.020684054
-0.014972232 0.034609918 -0.031867027 0.019301208 0.009026813 0.026261363 -0.02021431 0.03660947
0.040721145 -0.031608418 -0.028423753 -0.04107281 0.0028542369 0.014735945 -0.03135995 0.02213072
0.012552462 0.017784825 -0.027035618 0.008633391 0.024148416 -0.03210114 0.0041229147 0.021715032
-0.024426406 0.014796811 -0.018425964 -0.025173122 0.034387186 -0.03867849 0.0031171413 0.025728412
0.006142211 0.0055463156 0.030695332 -0.0044560907 -0.040114716 0.026244545 -0.0033693234 -0.020639764
0.004069456 -0.030501863 -0.03057241 -0.008141299 -0.022897262 -0.017097203 -0.007634923 0.030774629
-0.00789352 0.027297702 -0.041436855 -0.028399404 0.019341487 0.024333812 -0.031969357 0.013293963
0.028574279 -0.029502932 0.031264074 -0.032934017 0.0006086884 0.037692804 0.02020119 -0.02566359
0.039507844 0.021360077 -0.027647167 -0.023830999 0.0034398518 -0.027596455 0.023450619 0.009637334
00000000: dcb9 e8bc 791a 8d3c c60f 95bc 6aaf 0fbd
00000010: c51d 05bd 1c69 843c 04cc 4e3c 0b03 213d
00000020: 8a10 d0bc 02d7 dbbc 0e8b 5b3c 034d b53c
00000030: 67a5 013c 0b4b 123d 1c88 263d bc8c 233d
00000040: 0c45 e53c b227 15bd 2a29 1cbd e6ec 14bd
00000050: 5460 fd3c c151 0ebc 6e14 453b 74b8 25bd
00000060: eb3b 12ba 80ce 0dbc a75c 463c 275a b13b
00000070: 2e90 c1bc 9f8e 5dbc cc03 8e3c 7dfc 7c3c
00000080: d732 b7bc 0037 d03c 22a6 16bc 8bdd ecbc
00000090: 6a7a 543b 24d2 b73c 1aef 9ab9 7146 80bc
000000a0: 11e7 943b 3547 bd3b 8093 a8bc 6ffe c93c
000000b0: 1376 883c e6e7 61bc b33d b3bc cdf5 25bc
000000c0: d946 bbbc 47bb 283b b10d 27bd b68d c9bc
000000d0: 7be1 073d 435d efbc b79d bb3b 9b71 a93c
000000e0: 184e 75bc 21c3 0d3d 0087 02bd 911d 9e3c
000000f0: 33e5 133c 1222 d73c 7b98 a5bc d0f3 153d
00000100: 37cb 263d d477 01bd eed8 e8bc f63b 28bd
00000110: 260e 3b3b 086f 713c 4a73 00bd 7c4b b53c
00000120: d7a8 4d3c 7bb1 913c cd79 ddbc 1173 0d3c
00000130: e6d2 c53c 7c7c 03bd 8419 873b b9e3 b13c
00000140: e319 c8bc 536e 723c 0cf2 96bc dd37 cebc
00000150: 94d9 0c3d 566d 1ebd f448 4c3b 64c4 d23c
00000160: 9a44 c93b debd b53b c774 fb3c 6604 92bb
00000170: 544f 24bd cdfe d63c decf 5cbb b914 a9bc
00000180: 1259 853b 0bdf f9bc fe72 fabc 1563 05bc
00000190: 0a93 bbbc 6f0f 8cbc 602e fabb 131b fc3c
000001a0: d353 01bc 6e9f df3c b1b9 29bd dea5 e8bc
000001b0: 0a72 9e3c b457 c73c 4df2 02bd ecce 593c
000001c0: 9b14 ea3c 22b0 f1bc c20e 003d d2e5 06bd
000001d0: 6390 1f3a c563 1a3d f77c a53c 733c d2bc
000001e0: fad2 213d 54fb ae3c 507c e2bc 3a39 c3bc
000001f0: 236f 613b f611 e2bc 831b c03c e9e5 1d3c

enc.net.12.weight f4 [128]
0.98730636 1.0035416 0.99339736 1.0057497 1.0020243 1.0035685 1.0085833 0.9928309
1.0021218 1.0131723 1.012191 0.9941588 0.9917511 0.9970513 1.0016125 0.9829792
0.9941725 0.99775803 1.017016 0.9908987 0.9791263 1.009009 1.013725 0.99638766
0.98066574 1.0010659 1.0096643 0.9989862 0.9963715 0.9951195 0.9838885 0.9914412
0.98794967 0.9987543 0.9889214 0.9801847 0.992161 0.99240786 0.9996211 1.0078115
1.0132302 1.0178725 0.9992306 0.99689084 0.9867115 1.0019403 0.987588 1.0127693
1.0130184 1.0035591 1.0227599 1.0028733 1.0141469 0.99252445 1.0029143 0.9990556
1.0053693 0.98856264 0.9915574 0.9921891 1.0088018 0.98749137 1.0012347 1.0009073
0.98247087 0.9903244 1.0059946 0.9848541 0.9847403 1.0125333 1.0147128 1.0024186
0.9920534 1.0135303 1.0086839 0.992532 0.9938442 1.0006465 1.0103344 0.9944407
0.99374074 1.007666 1.0050306 1.0109514 0.9951953 1.0175258 0.9951671 1.0141306
0.9953259 0.9929665 0.98984236 0.982599 1.0210224 0.9977192 0.99524003 0.99836504
1.0070337 0.9831851 0.97906935 1.0144317 0.9989096 0.99273354 0.9979775 1.0053153
0.98082596 0.9943131 0.98420066 1.0109065 1.0076059 1.0088886 1.0059412 1.0027102
0.9893094 1.0105124 0.992308 1.0190783 0.9918999 1.0062352 1.0110273 0.9856522
0.98248833 0.9984133 0.9864064 0.9980136 1.0028514 0.99488246 0.99462837 0.99467504
00000000: 1cc0 7c3f 0d74 803f 4a4f 7e3f 68bc 803f
00000010: 5542 803f ef74 803f 4219 813f 2a2a 7e3f
00000020: 8745 803f a1af 813f 7a8f 813f 3181 7e3f
00000030: 66e3 7d3f c13e 7f3f d734 803f 86a4 7b3f
00000040: 1782 7e3f 126d 7f3f 952d 823f 8aab 7d3f
00000050: 05a8 7a3f 3527 813f bec1 813f 4313 7f3f
00000060: e90c 7b3f ed22 803f ae3c 813f 8fbd 7f3f
00000070: 3412 7f3f 27c0 7e3f 1ee0 7b3f 17cf 7d3f
00000080: 45ea 7c3f 5dae 7f3f f429 7d3f 62ed 7a3f
00000090: 43fe 7d3f 710e 7e3f 2be7 7f3f f8ff 803f
000000a0: 87b1 813f a549 823f 94cd 7f3f 3d34 7f3f
000000b0: 2099 7c3f 943f 803f 91d2 7c3f 6da2 813f
000000c0: 96aa 813f a074 803f cce9 823f 275e 803f
000000d0: 91cf 813f 1516 7e3f 7f5f 803f 1cc2 7f3f
000000e0: f1af 803f 7112 7d3f b5d6 7d3f 1b00 7e3f
000000f0: 6b20 813f 3ccc 7c3f 7528 803f bb1d 803f
00000100: 3683 7b3f e685 7d3f 6ec4 803f 661f 7c3f
00000110: f117 7c3f b19a 813f 1ce2 813f 414f 803f
00000120: 36f7 7d3f 5cbb 813f 8e1c 813f 9416 7e3f
00000130: 936c 7e3f 2f15 803f a352 813f aa93 7e3f
00000140: cb65 7e3f 33fb 803f d8a4 803f db66 813f
00000150: 1fc5 7e3f 493e 823f 45c3 7e3f 08cf 813f
00000160: aecd 7e3f 0d33 7e3f 4f66 7d3f 9c8b 7b3f
00000170: ddb0 823f 876a 7f3f 0dc8 7e3f da94 7f3f
00000180: 7be6 803f 05b2 7b3f 4aa4 7a3f e6d8 813f
00000190: 8ab8 7f3f c923 7e3f 747b 7f3f 2cae 803f
000001a0: 6917 7b3f 4e8b 7e3f 93f4 7b3f 6265 813f
000001b0: 3bf9 803f 4323 813f aec2 803f cf58 803f
000001c0: 6143 7d3f 7858 813f e607 7e3f 2871 823f
000001d0: 27ed 7d3f 51cc 803f 5869 813f b453 7c3f
000001e0: 5b84 7b3f 0498 7f3f 2185 7c3f d27d 7f3f
000001f0: 6f5d 803f 9eb0 7e3f f79f 7e3f 06a3 7e3f
