outputs_test/checkpoints/best.pt (torch, 694146 bytes, 38 tensors)

enc.net.0.weight f4 [32, 3, 3, 3]
0	0x3e146745	0.14492519
1	0x3e223dea	0.15843931
2	0xbd330cda	-0.043713428
3	0x3e31a826	0.173493
4	0xbd2d343d	-0.042286146
5	0x3d186f7d	0.0372157
6	0xbdcc5386	-0.09976868
7	0x3dd988c9	0.10621793
8	0x3e2915de	0.16512248
9	0xbe031a71	-0.12803055
10	0x3e369fa0	0.1783433
11	0x3d4866bc	0.0489261
12	0x3e1ffbf8	0.15623462
13	0x3d1c4dba	0.038160063
14	0x3ddc6db1	0.107631095
15	0xbcb3ab93	-0.021932399
16	0x3e1a760f	0.15084098
17	0x3d05dbf8	0.03268048
18	0xbdb26e93	-0.087124966
19	0x3d4ae3d3	0.049533676
20	0xbdc2df4d	-0.095152475
21	0xbc5d79dd	-0.013517824
22	0xbd91951e	-0.0710852
23	0x3e087092	0.13324192
24	0xbe14be55	-0.14525731
25	0xbdac280c	-0.08406076
26	0xbd64ac25	-0.055828232
27	0xbdf36ffd	-0.118865944
28	0x3cb2e732	0.021838758
29	0xbe3d4245	-0.18482311
30	0x3e2d8190	0.16943955
31	0xbe20ed92	-0.15715626
32	0x3e1d9f53	0.15392809
33	0x3cff8091	0.031189235
34	0xbd4e9515	-0.050435144
35	0x3e01f2cf	0.1269028
36	0x3d1bfcf9	0.03808305
37	0x3e25cf92	0.16192463
38	0x3d026493	0.031834196
39	0xbd4e910e	-0.050431304
40	0x3d754437	0.059879508
41	0xbd2c904f	-0.04212981
42	0x3daff43d	0.08591507
43	0x3e33d422	0.17561391
44	0x3deed874	0.11662379
45	0xbd97201b	-0.073791705
46	0x3df852fd	0.12125204
47	0x3d239ab5	0.039942462
48	0x3dcea251	0.10089553
49	0xbde75cb4	-0.112969786
50	0xbe43fdcb	-0.19139783
51	0xbd8f348f	-0.06992447
52	0xbe117f9c	-0.14208835
53	0x3e24114e	0.16022226
54	0x3d7afe50	0.061277688
55	0x3db11fe4	0.08648661
56	0x3d7795ef	0.060445722
57	0x3a9d5638	0.0012003845
58	0x3e208a12	0.1567767
59	0xbe0f333e	-0.13984391
60	0x3c8841cd	0.016632939
61	0xbe011c9e	-0.12608573
62	0x3d6069b2	0.0547883
63	0xbd96a2ca	-0.07355268
64	0x3d506f7d	0.050887574
65	0xbd4a477d	-0.049384583
66	0x3e19fe88	0.15038502
67	0xbdfde60f	-0.12397396
68	0xbe0208d0	-0.12698674
69	0xbdf712ad	-0.12064109
70	0x3e29709c	0.16546863
71	0x3d5740db	0.052552085
72	0x3e465ba8	0.19370902
73	0xbe18c565	-0.1491905
74	0xbe39a1d5	-0.1812814
75	0xbe10963e	-0.14119813
76	0xbdf4112b	-0.11917337
77	0x3db2fc19	0.0873949
78	0x3da268d6	0.07930152
79	0x3e2f04f6	0.17091736
80	0xbdb566e6	-0.08857517
81	0xbe0f4629	-0.13991608
82	0x3dca7c96	0.09887044
83	0xbda440b9	-0.08020157
84	0x3de0d716	0.109785244
85	0xbd3cd251	-0.04609901
86	0x3de09a56	0.10966937
87	0xbe24e96a	-0.16104665
88	0xbdd43d41	-0.10363246
89	0x3d50b670	0.050955236
90	0x3d3bd4de	0.045857303
91	0xbd3003fe	-0.042972557
92	0x3df772ff	0.12082481
93	0x3e018065	0.12646635
94	0xbe11cf57	-0.1423925
95	0xbdd6bff2	-0.104858294
96	0x3e2a6a0e	0.16642019
97	0xbd974160	-0.07385516
98	0xbd9cd7f4	-0.07658377
99	0xbe47d743	-0.1951571
100	0xbde2ee06	-0.110805556
101	0x3d489688	0.048971683
102	0xbc6d67bc	-0.014490064
103	0xbe0366ca	-0.1283218
104	0x3ca32cbb	0.01991879
105	0xbdedd761	-0.11613346
106	0xbe14a770	-0.14516997
107	0xbda8ec9d	-0.082482554
108	0xbe274a9c	-0.16337055
109	0xbdee52fc	-0.11636922
110	0x3e4d3c09	0.20042433
111	0x3d039e82	0.032133587
112	0x3d6abb15	0.05730732
113	0xbe35fe5c	-0.17772812
114	0xbe04d5df	-0.1297221
115	0xbd8789e6	-0.06618099
116	0x3d033fe3	0.03204335
117	0xbe28c5c9	-0.16481699
118	0xbd9c55bc	-0.0763354
119	0xbde45b6a	-0.11150248
120	0xbc7e6469	-0.015526869
121	0xbdb0499f	-0.08607792
122	0xbcf45596	-0.029825967
123	0xbe0df638	-0.13863456
124	0xbe0a3b8c	-0.13499278
125	0xbdf03113	-0.1172811
126	0xbd8c13bd	-0.06839702
127	0xbe1d8f50	-0.153867
128	0x3e235b18	0.15952718
129	0xbd2430e6	-0.040085696
130	0x3e29e740	0.16592121
131	0x3d77659a	0.06039963
132	0xbe2384c9	-0.15968622
133	0x3e0c5712	0.1370509
134	0xbd46ae1b	-0.048505884
135	0xbda4145c	-0.08011696
136	0xbe25501e	-0.16143844
137	0xbe51ccf0	-0.20488334
138	0x3d6a7d9d	0.0572487
139	0xbd10280d	-0.035194445
140	0x3d9a4a59	0.07533712
141	0xbe1bec87	-0.15226947
142	0x3e1c0c5d	0.15239091
143	0xbe0ae4ec	-0.1356389
144	0xbd143933	-0.036187362
145	0x3d17d567	0.03706875
146	0x3dc4b553	0.09604897
147	0x3e211ad5	0.15732892
148	0x3e359198	0.17731321
149	0xbe1a5857	-0.15072761
150	0x3d5986a9	0.053106938
151	0xbd9f2af5	-0.07771865
152	0xbc8511c8	-0.01624383
153	0xbe1ac49a	-0.1511406
154	0x3e2bf136	0.16791233
155	0xbe183dbf	-0.14867304
156	0x3dc26342	0.09491588
157	0x3d7349f9	0.059396718
158	0x3d5d76f4	0.05406852
159	0xbdeedb10	-0.116628766
160	0x3e25eb4f	0.16203044
161	0x3ced4efe	0.02896833
162	0x3ce4d992	0.027935777
163	0xbe268fdb	-0.16265814
164	0x3daffa5e	0.085926756
165	0xbceffcf1	-0.029295417
166	0xbdaba13a	-0.08380361
167	0x3e2d08da	0.16897908
168	0x3d37a695	0.0448366
169	0xbdca5812	-0.09880079
170	0xbdb8d36d	-0.09024701
171	0xbca72ff4	-0.020408608
172	0x3dc3b58a	0.0955611
173	0xbd74bc94	-0.059750155
174	0xbdfa4783	-0.12220671
175	0xbda26d47	-0.07930999
176	0xbe1fc1ab	-0.15601222
177	0x3d8777dc	0.06614658
178	0x3e15dfe8	0.14636195
179	0xbe3bc880	-0.18338203
180	0x3d240571	0.04004425
181	0x3dc0ff33	0.094236754
182	0x3d001dff	0.031278607
183	0xbd91b050	-0.07113707
184	0x3dc77abd	0.09740207
185	0x3dcc0802	0.09962465
186	0x3d98b5d8	0.07456559
187	0xbcfdefee	-0.030998196
188	0xbd3afb62	-0.045649894
189	0x3cf62169	0.030045228
190	0xbcb40828	-0.021976545
191	0xbd2d5719	-0.04231939
192	0x3dfb5a71	0.1227311
193	0x3e29c868	0.16580355
194	0xbc35d022	-0.011096986
195	0xbd29cdc5	-0.041456003
196	0x3bbf26a9	0.005833466
197	0x39c6d8ca	0.00037927023
198	0x3d70e066	0.058807753
199	0x3d89658f	0.06708824
200	0xbe2496c2	-0.16073135
201	0xbd965bbc	-0.07341716
202	0x3e23fdea	0.1601483
203	0x3d9ab473	0.07553949
204	0xbcaee8cf	-0.021351246
205	0xbe0118c5	-0.12607105
206	0xbe021a69	-0.12705387
207	0xbe2f32ec	-0.17109269
208	0xbd7ca5e2	-0.061681636
209	0x3d86a01e	0.06573509
210	0x3e03c77d	0.12869067
211	0x3dc1b32b	0.09458002
212	0xbe281da6	-0.1641756
213	0xbddb9bae	-0.10723053
214	0xbcb6bc89	-0.022306697
215	0x3e46bcf3	0.19408016
216	0x3cf3ee16	0.029776614
217	0xbd58c016	-0.052917562
218	0x3da3d6c5	0.079999484
219	0xbd95d96e	-0.07316862
220	0xbe021d03	-0.1270638
221	0x3e0ecf59	0.13946284
222	0xbda96350	-0.082708955
223	0xbd19f7a4	-0.037589684
224	0xbe3d7a25	-0.18503626
225	0x3e07bc50	0.1325543
226	0x3e15c32b	0.14625232
227	0x3d9058c9	0.070481844
228	0xbe045319	-0.12922324
229	0xbe414a01	-0.18875886
230	0xbe208124	-0.15674263
231	0x3e1a0605	0.15041359
232	0x3dc3e1e5	0.0956457
233	0x3e2808fc	0.16409677
234	0x3dd2aab8	0.10286468
235	0x3d4d233c	0.05008243
236	0x3aec311e	0.0018020009
237	0xbe181843	-0.14853005
238	0xbe2c5230	-0.16828227
239	0xbe365025	-0.1780401
240	0x3dac7550	0.08420813
241	0xbdb342e6	-0.08752994
242	0xbcf70ed2	-0.030158434
243	0xbdc20409	-0.09473426
244	0xbc8c515c	-0.017128639
245	0xbde828f1	-0.11335934
246	0xbded6635	-0.1159176
247	0x3d9c7517	0.076395206
248	0xbd358fa3	-0.044326436
249	0x3decc7fc	0.115615815
250	0xbd7016d6	-0.058615528
251	0xbe121cdc	-0.14268821
252	0xbd5e4215	-0.05426224
253	0xbde550dc	-0.11197063
254	0xbda020dd	-0.07818768
255	0xbe45f0fa	-0.19330207

enc.net.0.bias f4 [32]
0	0xbdb8bd04	-0.09020427
1	0x3e249852	0.1607373
2	0x3e18411d	0.14868589
3	0x3d6ada9e	0.057337396
4	0x3c40918e	0.011753453
5	0xbe263eb2	-0.16234854
6	0xbcaa3293	-0.020776069
7	0x3e3c186c	0.18368691
8	0x3d492557	0.049107876
9	0x3c86604e	0.016403344
10	0xbd253865	-0.040336985
11	0xbd8988b8	-0.0671553
12	0x3debe926	0.11519079
13	0x3c3c3a12	0.011488454
14	0x3dfe0fc4	0.12405351
15	0xbd082f3e	-0.03324818
16	0x3dabaf89	0.0838309
17	0x3da30337	0.079595976
18	0x3d003da3	0.03130878
19	0x3df67c7a	0.12035461
20	0x3df6e501	0.12055398
21	0x3e35bfd0	0.17748952
22	0x3e177be5	0.14793356
23	0xbd4c67aa	-0.04990355
24	0xbe265cde	-0.16246364
25	0x3d0f72df	0.03502166
26	0xbb005884	-0.001958401
27	0xbd4701d8	-0.048585743
28	0xbd0092da	-0.03139005
29	0x3c0d2bea	0.008616427
30	0x3e0efcab	0.13963573
31	0x3d784425	0.060611863

enc.net.1.weight f4 [32]
0	0x3f8012bc	1.0005717
1	0x3f809678	1.004592
2	0x3f7d43fa	0.9893185
3	0x3f7c8b27	0.9864983
4	0x3f8049e7	1.0022553
5	0x3f80ca8b	1.0061811
6	0x3f818702	1.0119326
7	0x3f7e60d2	0.99366486
8	0x3f7c441e	0.9854144
9	0x3f7f41d0	0.99709797
10	0x3f8030db	1.001491
11	0x3f7ec816	0.99524057
12	0x3f7d9a56	0.9906362
13	0x3f7e99bb	0.99453324
14	0x3f7f1348	0.99638796
15	0x3f809959	1.0046798
16	0x3f80612d	1.0029656
17	0x3f82d5e9	1.022153
18	0x3f80e38d	1.0069443
19	0x3f806ea8	1.003377
20	0x3f7f552d	0.9973934
21	0x3f7d7ef6	0.9902185
22	0x3f7cf3b7	0.9880938
23	0x3f810d13	1.0082115
24	0x3f802efb	1.0014337
25	0x3f7e364b	0.99301594
26	0x3f8006f5	1.0002123
27	0x3f81fad3	1.015467
28	0x3f7eba5b	0.99503106
29	0x3f7f77bb	0.9979207
30	0x3f80326f	1.0015391
31	0x3f804786	1.0021827

enc.net.1.bias f4 [32]
0	0xbb94ea76	-0.0045445515
1	0x3be308ad	0.0069285245
2	0xbbe4c9ef	-0.00698208
3	0xbbac205c	-0.005252881
4	0xbba3f4af	-0.005003534
5	0xba0b71a5	-0.00053193636
6	0xbb173e89	-0.0023078045
7	0xbbf2eb19	-0.0074132797
8	0xbc33b6ae	-0.010968847
9	0xbc9ef890	-0.019405633
10	0xbc018a15	-0.0079064565
11	0x3c185602	0.00929785
12	0xbcb0653f	-0.021532653
13	0xbabb06d9	-0.0014269009
14	0xbb27929a	-0.002556956
15	0x3bc20593	0.0059210747
16	0x3b9f4930	0.0048610196
17	0x3c80e1d9	0.015732693
18	0x3beb8367	0.0071872952
19	0xb95d1592	-0.00021084238
20	0xbaebb6f5	-0.0017983603
21	0xbc026cde	-0.007960526
22	0xbc9f618e	-0.019455697
23	0x3a18f7e7	0.000583528
24	0xbb64e243	-0.0034924902
25	0xb996d2ec	-0.00028767379
26	0xbaf21fb5	-0.0018472584
27	0x3c62a159	0.013832414
28	0xbc1c65db	-0.009545769
29	0xbba58a87	-0.005051914
30	0x3b5e0078	0.003387479
31	0x3a9a89b3	0.0011790305

enc.net.1.running_mean f4 [32]
0	0xbe029eda	-0.1275591
1	0x3e0416bb	0.12899296
2	0x3e154cb4	0.14580041
3	0x3d6521c8	0.05594042
4	0x3d836f83	0.064177535
5	0xbe243491	-0.16035677
6	0xba323554	-0.00067981076
7	0x3e405457	0.18782173
8	0x3d03a69a	0.032141306
9	0x3d145dff	0.036222454
10	0xbc93588a	-0.017986555
11	0xbd97b837	-0.07408183
12	0x3e1550bd	0.1458158
13	0x3cffd3d9	0.031228947
14	0x3de3c637	0.11121791
15	0xba8429f6	-0.0010083306
16	0x3d89ba42	0.06724979
17	0x3d61713e	0.055039637
18	0x3c12a8f2	0.0089514125
19	0x3dd739eb	0.10509094
20	0x3deebafe	0.1165676
21	0x3e468837	0.193879
22	0x3e2817c4	0.16415316
23	0xbc34405e	-0.011001674
24	0xbe256b7a	-0.1615428
25	0x3d40d307	0.04707625
26	0xbb6d2895	-0.003618752
27	0xbd8cb414	-0.06870285
28	0xbc9c2e07	-0.019064916
29	0x3cb36e98	0.021903321
30	0x3df9de49	0.12200601
31	0x3d9bc3f1	0.07605732

enc.net.1.running_var f4 [32]
0	0x3f86b536	1.0524051
1	0x3ec6954d	0.38785782
2	0x3d8e8e9c	0.06960794
3	0x3edde5a5	0.43339267
4	0x3f82e947	1.022744
5	0x3e4e2a98	0.20133436
6	0x3e929e1c	0.28636253
7	0x3d957e97	0.07299536
8	0x3e83cb3a	0.25740987
9	0x3e822387	0.2541773
10	0x3ed794dc	0.42105758
11	0x3e7fb700	0.24972153
12	0x3f42f11a	0.7614914
13	0x3e8e0389	0.27737072
14	0x3e2988f5	0.16556151
15	0x3f2db4d3	0.6785404
16	0x3e2c66bc	0.16836065
17	0x3ed410dc	0.41419113
18	0x3ecea39a	0.40359193
19	0x3e146780	0.14492607
20	0x3e58f2ec	0.21186417
21	0x3f03b66a	0.51450217
22	0x3ea8462f	0.32866046
23	0x3f236e76	0.63840425
24	0x3dd311d4	0.10306135
25	0x3f1aa2c8	0.60404634
26	0x3e122063	0.14270167
27	0x3e6213e3	0.22077899
28	0x3e4fbd01	0.20286943
29	0x3e3e91a5	0.18610246
30	0x3e63f6d7	0.2226213
31	0x3f2b0ec2	0.66819394

enc.net.3.weight f4 [32, 32, 3, 3]
0	0xbc9d6fe4	-0.019218393
1	0xbcca046c	-0.024660312
2	0xbc76a608	-0.015054233
3	0xbcaa1547	-0.020762099
4	0x3d6094dc	0.054829463
5	0x3d07ad03	0.03312398
6	0x3d5322dd	0.05154692
7	0xbad67ec4	-0.0016364683
8	0x3c25950e	0.010106338
9	0x3ccd4ee6	0.025062036
10	0xbd5536ef	-0.052054342
11	0x3c155d6b	0.009116511
12	0xbbf7d43a	-0.007563141
13	0xbd1ad301	-0.037798885
14	0xbd4c228b	-0.04983763
15	0x3d4ff32b	0.050769012
16	0x3d3ab53b	0.04558299
17	0x3cdfcf60	0.027320564
18	0x3d6f8beb	0.058483046
19	0xbc8e854d	-0.017397547
20	0xbbcbb2eb	-0.006216397
21	0x3cf08c29	0.029363709
22	0xbaaed13a	-0.0013337501
23	0xbb0c15d6	-0.002137532
24	0xbd3ebba2	-0.04656566
25	0x3cac1b5e	0.021009143
26	0xbd0a707a	-0.033798672
27	0x3be250c7	0.006906602
28	0x3d7d8834	0.06189747
29	0xbc72c67f	-0.014817833
30	0xbc9e4e85	-0.01932455
31	0x3d0d5771	0.03450722
32	0xbcc61b35	-0.024182895
33	0xbacf7af9	-0.0015829495
34	0x3d6d6521	0.057957772
35	0xbcb90711	-0.022586377
36	0xbcf41c18	-0.029798552
37	0xbc9f9aa6	-0.019482922
38	0xbb942df0	-0.0045220777
39	0xbc82c69b	-0.015963843
40	0xbc8f7d62	-0.017515842
41	0x3d0dec27	0.03464904
42	0x3cb2fa6d	0.021847928
43	0xbbbe1b16	-0.0058015687
44	0xbd0b7aa2	-0.0340525
45	0xbc9820ca	-0.018570323
46	0xbcbb928c	-0.022897027
47	0xbc9adfdc	-0.018905573
48	0xbd8504f4	-0.06495085
49	0x3bdedbf3	0.0068011223
50	0xbd6ff386	-0.05858185
51	0xbd3e29d5	-0.046426613
52	0xbd36793b	-0.044549208
53	0x3cc933ac	0.024560772
54	0xbcb95771	-0.022624703
55	0xbc84a369	-0.016191201
56	0x3d60a725	0.0548469
57	0x3d398e63	0.045301806
58	0x3d32f380	0.04368925
59	0xbd377e7c	-0.04479836
60	0xbcf38212	-0.029725108
61	0xbc556634	-0.013024855
62	0x3d70b431	0.058765594
63	0x3cce7ebc	0.025206916
64	0xbccfb6c9	-0.025355713
65	0x3ca412fb	0.020028582
66	0xbd1eb93b	-0.03875087
67	0xbb6d6e1e	-0.0036228965
68	0xbc2abb99	-0.010420703
69	0x3d838d1a	0.06423397
70	0x3d07a209	0.033113513
71	0xbb37bc8c	-0.0028035967
72	0x3bcda9bf	0.006276339
73	0xbcc4e437	-0.024034603
74	0x3c7ce7b0	0.015436098
75	0x3cdde9cd	0.027089024
76	0x3c94de4c	0.018172406
77	0xbcab4fb6	-0.020912033
78	0x3d54c94b	0.05194978
79	0xbc1783d4	-0.009247739
80	0xbcc30aa6	-0.023808789
81	0x3d1a2ca3	0.037640225
82	0x3d4fd71e	0.05074226
83	0x3d74b63e	0.059744112
84	0x3c84095a	0.01611774
85	0xbc8d0a21	-0.017216744
86	0x3cdfd78e	0.027324464
87	0x3d649f24	0.05581583
88	0xbd4c4ca8	-0.049877793
89	0xb8ac2882	-8.209144e-05
90	0xbcad58f5	-0.021160582
91	0x3ce037ca	0.027370352
92	0x3d2700a3	0.04077209
93	0x3bff0bf6	0.0077834083
94	0x3c0958b2	0.008382963
95	0x3d250518	0.04028806
96	0x3c04de44	0.008109633
97	0xbd16a2eb	-0.036776464
98	0x3d74b9a0	0.05974734
99	0xbcfef9be	-0.031124946
100	0xbc0987f1	-0.008394227
101	0x3b04a870	0.0020241998
102	0xbb8fe120	-0.0043908507
103	0xbd63dd07	-0.05563071
104	0x3cd1acaf	0.025595037
105	0xbcdca91a	-0.026936103
106	0xbceea8f2	-0.029133294
107	0x3c6bbc6e	0.014388187
108	0xbce01fde	-0.027358945
109	0xbcbffe67	-0.023436738
110	0xbc8d0acd	-0.017217064
111	0xbca73c0f	-0.02041438
112	0xbcb2796e	-0.021786418
113	0xbc70abd1	-0.014689402
114	0x3ca67055	0.020317236
115	0xbd2bb358	-0.041919082
116	0xbcf586fc	-0.029971592
117	0x3c7feef4	0.015620936
118	0x3ce3da5b	0.027814081
119	0x3d341ce6	0.043972872
120	0xbcc48a68	-0.023991778
121	0x3d26173d	0.040549506
122	0x3d4eee10	0.050520003
123	0x3d3041ba	0.04303143
124	0xbd2345f0	-0.03986162
125	0xbc4e3f79	-0.012588375
126	0xbd3f215c	-0.046662673
127	0xbd13dba0	-0.036098123
128	0x3d02986b	0.03188364
129	0xbb97e526	-0.004635471
130	0x3ceb5413	0.028726613
131	0xbd03fb5d	-0.03222214
132	0x3c36656c	0.011132579
133	0xbd153816	-0.03643044
134	0x3ce2d587	0.027689708
135	0xbc82b178	-0.015953764
136	0xbb674272	-0.0035287407
137	0xbd2c83bc	-0.04211782
138	0x3beb2c53	0.0071769147
139	0x3d85aab4	0.065267
140	0x3d075d2b	0.033047836
141	0xbcbd8944	-0.023136742
142	0x3c43dc44	0.011954371
143	0x3b34a6f8	0.0027565341
144	0xbd33aee8	-0.043867975
145	0x3d5194cb	0.05116729
146	0x3bea580a	0.0071516084
147	0x3bc6b4da	0.0060640397
148	0xbcca9209	-0.024727838
149	0xbd077c1e	-0.03307735
150	0x3c03f864	0.008054826
151	0x3cae6a64	0.021290965
152	0x3c0573bc	0.008145269
153	0xbcd706b7	-0.02624832
154	0x3d639b47	0.055568006
155	0xbc038841	-0.008028091
156	0xbd108150	-0.035279572
157	0xbce7b175	-0.02828286
158	0x3d6b1b1e	0.057398908
159	0x39fc650f	0.0004814048
160	0xbc1353dc	-0.008992162
161	0xbcd13974	-0.025540091
162	0xbc5f6996	-0.0136360135
163	0xbd468c46	-0.04847362
164	0xbd37fd77	-0.044919457
165	0x3d223b27	0.039607193
166	0x3d61ffcc	0.055175588
167	0x3d7b22bb	0.06131242
168	0xbd26d6a0	-0.040732026
169	0x3cfef8fb	0.031124583
170	0xbd0ceb66	-0.03440418
171	0x3d2cb0f8	0.042160958
172	0x3d3600e7	0.044434454
173	0x3d42b487	0.047535446
174	0x3d13d594	0.036092356
175	0x3c8f6359	0.017503427
176	0xbc46a660	-0.012124628
177	0x3cf38eaf	0.029731123
178	0xbcc5a58c	-0.02412679
179	0x3cc77a8d	0.024350429
180	0xbc28177d	-0.010259506
181	0x3c03a631	0.008035229
182	0xbd2dd286	-0.0424371
183	0xbc50c014	-0.0127411075
184	0xbce86370	-0.028367728
185	0xbc92404f	-0.01785293
186	0xbd072eb3	-0.03300352
187	0xbd377bb5	-0.04479571
188	0x3c6fd2e8	0.014637686
189	0x3d0f1afc	0.034937844
190	0x3d4de706	0.05026915
191	0x3cf64912	0.03006414
192	0xbd085832	-0.033287235
193	0xbd7790f1	-0.06044096
194	0x3c9a23a6	0.018815827
195	0x3d0e84d4	0.034794644
196	0xbd41facb	-0.047358315
197	0x3cc89773	0.02448628
198	0x3d5782d0	0.052614987
199	0x3c19ab55	0.009379228
200	0xbd0bc827	-0.034126427
201	0x3d4089d2	0.047006436
202	0x3cefc32f	0.029267875
203	0x3d17f898	0.03710231
204	0xbd105590	-0.03523785
205	0x3d357ecb	0.044310372
206	0xbd0b8b93	-0.034068655
207	0x3d921188	0.0713225
208	0xbc759c76	-0.0149909165
209	0x3d3e136f	0.046405252
210	0x3cb0a6b3	0.021563863
211	0x3cb82f94	0.022483625
212	0xba7aebe0	-0.0009571891
213	0x3d1219a6	0.03566899
214	0xbc7b4a1d	-0.015337494
215	0xbd3b35c5	-0.045705575
216	0xbc99fd15	-0.018797437
217	0x3d64f88a	0.055901088
218	0xbc4a717f	-0.012356161
219	0x3cce28f9	0.025166022
220	0xbc00673b	-0.007837112
221	0x3d49e743	0.049292814
222	0x3d0d0dee	0.034437113
223	0x3ccaccb8	0.02475582
224	0xbd03a7e0	-0.03214252
225	0xbd321ff5	-0.043487508
226	0x3b270f3b	0.0025491256
227	0xbcf669b5	-0.030079702
228	0x3d64eba2	0.05588878
229	0xbd5540c0	-0.052063704
230	0x3d13f6d9	0.036124084
231	0x3d82f8b6	0.06395094
232	0x3cf2a275	0.029618481
233	0x3ce54df0	0.027991265
234	0xbd672235	-0.056429107
235	0x3d7adbb9	0.0612447
236	0xbc3653a7	-0.011128343
237	0xbd8e49b9	-0.06947655
238	0x3d5f232d	0.054476906
239	0xbd21c513	-0.039494585
240	0xbc179e66	-0.009254074
241	0x3d6dcbb2	0.058055587
242	0xbd31f819	-0.043449495
243	0xbd20497f	-0.03913259
244	0x3c5c25b5	0.013436724
245	0xbbbde9a7	-0.005795676
246	0x3c1e85bb	0.0096754385
247	0xbd4d6445	-0.050144453
248	0xbb856ef2	-0.0040720636
249	0xbcf38637	-0.029727085
250	0xbcfa3998	-0.030545041
251	0xbd6d5118	-0.057938665
252	0x3d0c8113	0.034302782
253	0x3c87e092	0.016586576
254	0xbd33505d	-0.043777812
255	0x3d38896a	0.045052923

enc.net.3.bias f4 [32]
0	0xbd58b766	-0.052909277
1	0x3d69b57b	0.05705784
2	0x3d2748e2	0.04084099
3	0xbd3c13e3	-0.045917403
4	0x3d3d2f15	0.04618748
5	0xbd6082bf	-0.05481219
6	0x3d1fb131	0.038987342
7	0x3d259550	0.0404256
8	0x3d1af0c0	0.037827253
9	0x3cd35838	0.025798902
10	0xbd121648	-0.03566578
11	0xbccdb35c	-0.02510994
12	0x3c4c371d	0.012464312
13	0x3cbe465d	0.023226911
14	0x3d4fdf97	0.05075034
15	0x3b25ad0e	0.002528015
16	0x3cc565bd	0.024096364
17	0xbd372369	-0.044711504
18	0xbc4fb9b8	-0.012678556
19	0x3d111c4d	0.03542738
20	0x3ba87e44	0.005142005
21	0x3d400027	0.046875145
22	0xbd3ef27c	-0.04661797
23	0xbd22c7d2	-0.039741345
24	0x3c91e2b3	0.017808294
25	0xbb0dbc13	-0.0021626994
26	0xbd4e8689	-0.05042127
27	0x3cd368b5	0.025806764
28	0x3b02ec29	0.0019977188
29	0x3c6e5b72	0.014548169
30	0x3c568a47	0.013094491
31	0xbd27f69c	-0.04100667

enc.net.4.weight f4 [32]
0	0x3f800148	1.0000391
1	0x3f7c3734	0.98521733
2	0x3f7e990c	0.9945228
3	0x3f8001a7	1.0000504
4	0x3f7a47dc	0.977659
5	0x3f7fbd89	0.9989858
6	0x3f7d74ab	0.99006146
7	0x3f7dd93e	0.9915961
8	0x3f80a965	1.0051695
9	0x3f8118dd	1.0085713
10	0x3f7e5fa5	0.9936469
11	0x3f811bbc	1.0086589
12	0x3f7ef0bc	0.9958608
13	0x3f7f5941	0.99745566
14	0x3f7e018b	0.99221104
15	0x3f80e8f3	1.007109
16	0x3f816556	1.010905
17	0x3f809e07	1.0048226
18	0x3f7e80e8	0.99415445
19	0x3f80e518	1.0069914
20	0x3f7e7266	0.9939331
21	0x3f80a5ac	1.0050559
22	0x3f7bb149	0.9831739
23	0x3f7f169d	0.9964388
24	0x3f80a34d	1.0049835
25	0x3f801991	1.0007802
26	0x3f802527	1.0011338
27	0x3f7ebeb5	0.99509746
28	0x3f7ebef2	0.9951011
29	0x3f7feed5	0.99973804
30	0x3f8085b2	1.00408
31	0x3f7ef989	0.9959951

enc.net.4.bias f4 [32]
0	0xbbbe565b	-0.005808634
1	0xbc831a03	-0.016003614
2	0xbcaac851	-0.020847471
3	0xba8fd584	-0.0010973667
4	0xbbd5ad30	-0.0065208897
5	0xb9f082dd	-0.00045873868
6	0xbb8a1b49	-0.0042146784
7	0xbb72750f	-0.0036996042
8	0x3bdab94c	0.006674921
9	0x3b699040	0.0035638958
10	0xbc3c56e4	-0.011495326
11	0xb9c81342	-0.0003816132
12	0xba4104c4	-0.0007363076
13	0xbc7b2e84	-0.015330914
14	0xbc7c24c9	-0.01538963
15	0x3bc97da3	0.0061490103
16	0xbc0030bb	-0.007824118
17	0x3c479f45	0.012183969
18	0x3bee426b	0.007271101
19	0x3b26fbb7	0.0025479624
20	0xbc455ec2	-0.012046518
21	0x3b803af2	0.003913277
22	0xbc134345	-0.008988206
23	0xbb774bb8	-0.003773434
24	0xbc146723	-0.009057793
25	0xbae4c20a	-0.0017452848
26	0x3c088de3	0.00833461
27	0x39fa2851	0.00047713754
28	0xba2e6719	-0.0006652936
29	0xbc65e3da	-0.014031375
30	0xbc32ec89	-0.010920652
31	0x3c00452d	0.007828993

enc.net.4.running_mean f4 [32]
0	0x3e9780d8	0.29590487
1	0x3edf892a	0.43659335
2	0x3f2ed1e7	0.68289036
3	0xbf199044	-0.59985757
4	0xbf440927	-0.76576465
5	0x3d54096b	0.051766794
6	0xbe46c955	-0.1941274
7	0xbe210850	-0.15725827
8	0x3d0e5f9e	0.034759156
9	0xbe3aeb87	-0.18253909
10	0x3e9d4d3a	0.30722982
11	0x3deb5339	0.11490483
12	0xbeeb46b4	-0.4595238
13	0x3e99e938	0.30060744
14	0x3f4b5ce3	0.7943861
15	0x3e0b510b	0.13605134
16	0x3eba4ac1	0.36385158
17	0xbe6ffd94	-0.23436576
18	0xbf102bb7	-0.56316704
19	0x3f002962	0.50063145
20	0x3ee2f0ad	0.44324246
21	0xbe96e936	-0.294748
22	0x3e9bd39a	0.30434877
23	0xbef5e8d7	-0.48029205
24	0xbd22aeca	-0.039717473
25	0x3f1e3c99	0.61811215
26	0x3dcffafe	0.10155295
27	0x3e2d766b	0.16939704
28	0x3f0c4096	0.5478605
29	0x3f33bb1a	0.7020737
30	0x3e3aef89	0.18255438
31	0xbf10122e	-0.5627774

enc.net.4.running_var f4 [32]
0	0x3e974989	0.2954829
1	0x3e75a220	0.23987627
2	0x3ecfd6f8	0.40593696
3	0x3eb790ac	0.35852563
4	0x3f5d93b2	0.8655349
5	0x3ea7814f	0.32715842
6	0x3eab30e8	0.3343575
7	0x3f0ada26	0.5423912
8	0x3ec06ceb	0.37583098
9	0x3e4838dc	0.1955294
10	0x3ee2c3b4	0.44289935
11	0x3e113bc0	0.14182949
12	0x3e9a5f53	0.30150852
13	0x3e39b812	0.18136624
14	0x3e9ab7c7	0.30218336
15	0x3e72ac0f	0.23698448
16	0x3deccdae	0.11562668
17	0x3e4b5304	0.19855887
18	0x3e7c5964	0.24643475
19	0x3e0db7dd	0.1383967
20	0x3e941f17	0.2892997
21	0x3e367c5c	0.17820877
22	0x3e5094bc	0.20369238
23	0x3e90927d	0.28236762
24	0x3e0630b4	0.13104516
25	0x3ee98206	0.45607013
26	0x3e6aa62a	0.22914949
27	0x3e7f0830	0.24905467
28	0x3e4ecfb8	0.20196426
29	0x3ef8d7ee	0.4860224
30	0x3e207f15	0.15673478
31	0x3eabc65e	0.3354978

enc.net.7.weight f4 [64, 32, 3, 3]
0	0xbd4374df	-0.04771888
1	0xbd5f0b29	-0.054454003
2	0x3d179381	0.037005905
3	0xbd2e159e	-0.042501085
4	0x3d3534cc	0.044239804
5	0xbccb8f4b	-0.0248486
6	0x3c5c1f38	0.0134351775
7	0x3d5f7358	0.05455336
8	0xbd0a2638	-0.033727854
9	0xbd6912cc	-0.05690269
10	0x3be70580	0.007050216
11	0xbd33350e	-0.04375177
12	0x3ce37360	0.027764976
13	0x3c97c3eb	0.018526038
14	0x3d1bd685	0.03804638
15	0xbc043b21	-0.008070738
16	0xbd27b1ea	-0.040941156
17	0xbd6a959d	-0.05727159
18	0xbd291c76	-0.041286908
19	0x3d4a27ab	0.049354237
20	0xbc83834e	-0.016053822
21	0xbbd6335f	-0.0065368856
22	0xbc943f4e	-0.018096592
23	0xbd166ebe	-0.036726706
24	0x3d3582c3	0.044314157
25	0xbc9d8bbf	-0.019231675
26	0xbd08a3b2	-0.033359237
27	0x3d5f82ef	0.054568227
28	0x3d0efeb4	0.034910873
29	0x3cf9be1b	0.030486157
30	0x3d31a8e0	0.043373942
31	0xbd17ddb7	-0.037076678
32	0x3c9a2b6a	0.01881953
33	0xbc9ab209	-0.018883722
34	0xba5ac825	-0.0008345864
35	0x3cc119c8	0.023571864
36	0xbbef0e22	-0.007295386
37	0x3d907681	0.07053853
38	0x3c61410b	0.013748418
39	0x3d346670	0.044043005
40	0x3c8abf0c	0.016936801
41	0xbd365216	-0.044511877
42	0xbcdfcd06	-0.027319442
43	0xbd22db7f	-0.03976011
44	0x3c836615	0.016039887
45	0xbd4a0cc5	-0.049328584
46	0xbd75a769	-0.059974108
47	0xbaa42ca2	-0.0012525509
48	0xbd7f4e23	-0.062330376
49	0xbd36ef13	-0.044661593
50	0xbd52d6ab	-0.051474255
51	0x3c6a20e3	0.014290067
52	0x3d23060b	0.039800685
53	0x3b78b61a	0.0037950338
54	0xbcff3b77	-0.031156285
55	0x3d382216	0.044954382
56	0x3d557fd8	0.052123874
57	0xbbb59de2	-0.0055425027
58	0x3d56d4db	0.05244909
59	0x3c745598	0.014912985
60	0xbd363f7b	-0.044494133
61	0xbc8daf62	-0.017295543
62	0xbd5ada14	-0.05343063
63	0x3b23f7f7	0.0025019625
64	0x3c8bbc49	0.017057555
65	0xbd950c73	-0.07277765
66	0xbd124db3	-0.03571863
67	0xbc211bd6	-0.009833297
68	0x3d1f9628	0.03896156
69	0xbd3e9a28	-0.046533734
70	0xbc945e7e	-0.018111464
71	0xbc74be39	-0.014937931
72	0xbcf8e141	-0.030380847
73	0xbcdef7cc	-0.027217768
74	0xbc89734c	-0.01677861
75	0xbca58e94	-0.020209588
76	0xbcadbff6	-0.021209698
77	0x3b4d316e	0.003130998
78	0xbbdb692c	-0.006695887
79	0xbd002580	-0.031285763
80	0x3d048d75	0.032361466
81	0x3d1e2be8	0.03861609
82	0xbc54d4f7	-0.012990228
83	0xbc831715	-0.016002217
84	0xbd879fe0	-0.066222906
85	0xbd59441b	-0.053043466
86	0xbc638866	-0.0138875
87	0xbcb15077	-0.021644814
88	0x3bea25ad	0.0071456046
89	0xbd24fca5	-0.040280003
90	0xbc9670b6	-0.018364292
91	0x3b456a02	0.0030123
92	0x3d572c06	0.05253222
93	0x3d2db972	0.042413183
94	0xbd30a8c5	-0.0431297
95	0xbc1a819a	-0.0094303135
96	0xbc71c889	-0.014757284
97	0xbbf75903	-0.007548453
98	0x3c980be6	0.018560361
99	0xbd010a3e	-0.03150391
100	0xbc944654	-0.018099941
101	0xbd895d80	-0.06707287
102	0xbcd66d60	-0.026175201
103	0xbd84d906	-0.064867064
104	0x3c6903bb	0.014222081
105	0xbd4d43d6	-0.05011352
106	0xbd0d9600	-0.03456688
107	0xbd469b0c	-0.048487708
108	0x3d29f871	0.041496698
109	0xbca21f2d	-0.019790256
110	0x3d3d429e	0.04620611
111	0xbd056c30	-0.03257388
112	0x3d298df9	0.04139516
113	0xbc95857c	-0.018252127
114	0xbd442e18	-0.04789552
115	0x3d3978aa	0.04528109
116	0xbd41a1d6	-0.04727348
117	0xbd20c511	-0.039250437
118	0x3ce5eebe	0.028067943
119	0xbc2039c4	-0.009779397
120	0xbb643add	-0.0034825124
121	0x3d648d83	0.05579902
122	0xbd4f7367	-0.050647166
123	0xbccff30e	-0.025384452
124	0x3ca10e7c	0.019660227
125	0xbc8d04a6	-0.01721413
126	0xbb76c2a0	-0.0037652627
127	0xbcd49be0	-0.025953233
128	0xbc809f99	-0.015701102
129	0x3d29a65d	0.041418422
130	0xbc98d997	-0.018658442
131	0x3c765618	0.015035175
132	0x3d1e3ffd	0.038635243
133	0x3d20461b	0.039129358
134	0x3ca3e992	0.020008836
135	0x3d20458c	0.039128825
136	0xbc90cd27	-0.01767595
137	0x3aa2431c	0.0012379619
138	0xbcf27e34	-0.029601194
139	0xbd7e03bb	-0.062015276
140	0x3d310a26	0.04322257
141	0xbd5280ba	-0.051392294
142	0xbd05e422	-0.032688268
143	0xbc941f97	-0.01808147
144	0xbd672446	-0.056431077
145	0xbd453abe	-0.048151724
146	0xbd0857eb	-0.03328697
147	0x3c1174f9	0.008877986
148	0xbd5122c2	-0.05105854
149	0xbd339b0e	-0.043849044
150	0xbd2f5019	-0.042800996
151	0xbd52c7ce	-0.05146008
152	0x3b9022d3	0.0043986826
153	0x3c015b56	0.007895311
154	0x3cbc4de6	0.022986364
155	0x3d65e695	0.056128103
156	0xbd04453e	-0.032292597
157	0xbcff7879	-0.031185376
158	0x3c4ffc55	0.012694438
159	0x3d4fd2a7	0.050738003
160	0x3c8d35b5	0.017237524
161	0xbbfebc84	-0.0077739377
162	0x3ce2cb08	0.027684703
163	0xbd4a218d	-0.049348403
164	0xbd04eb5d	-0.032451022
165	0xbcb2e581	-0.021837952
166	0xbd502c0f	-0.050823268
167	0xbd3299b8	-0.04360363
168	0xbd267d71	-0.040646974
169	0x3cabfbca	0.020994086
170	0x3cad4881	0.021152737
171	0xbc8241a8	-0.015900448
172	0xbce125dc	-0.027483873
173	0xbc369ed3	-0.011146265
174	0x3ce5b67c	0.028041117
175	0xbd585e8d	-0.052824546
176	0x3d0858f7	0.03328797
177	0x3c6e1ee2	0.01453373
178	0xbd079cb1	-0.033108417
179	0x3cf0f474	0.02941344
180	0xbbd8b3c4	-0.0066132266
181	0xbd05df48	-0.03268364
182	0x3d40d557	0.047078457
183	0x3c376a4b	0.011194776
184	0x3d1bccab	0.038036983
185	0xbccaac16	-0.02474026
186	0xbd5e8740	-0.054328203
187	0x3d3385c1	0.04382873
188	0xbb14434b	-0.0022623118
189	0x3cb74102	0.022369865
190	0xbca7d663	-0.02048797
191	0x3cb29935	0.02180157
192	0xbd40bc30	-0.04705447
193	0x3a9c8626	0.0011941835
194	0x3d276fad	0.040877987
195	0xbc50f73b	-0.012754257
196	0x3d5241fb	0.051332455
197	0x3c9cc083	0.019134765
198	0x3d01ed29	0.031720314
199	0x3d791473	0.060810518
200	0xbc4f0d04	-0.0126373805
201	0xbc3ccecf	-0.011523916
202	0x3d1f9087	0.03895619
203	0xbcf1da6d	-0.029523099
204	0xbd2aabbc	-0.041667685
205	0x3d27a12c	0.04092519
206	0xbd4fe5c8	-0.050756246
207	0xbcdabc8b	-0.026701232
208	0x3c7ee76c	0.015558105
209	0x3c2efc2f	0.010680242
210	0xbcb08c98	-0.021551415
211	0xbb890805	-0.004181864
212	0x3d491b24	0.04909815
213	0xbcfae389	-0.030626075
214	0x3d1e7e85	0.038694877
215	0xbb033402	-0.0020020013
216	0xbc2506c6	-0.010072416
217	0xbd4fd4ff	-0.05074024
218	0xbbadb2c6	-0.0053008525
219	0x3d839aec	0.064260334
220	0xbcc80774	-0.024417616
221	0xbd0f82fe	-0.035037033
222	0x3ad48924	0.0016215187
223	0x3d3aa52f	0.045567688
224	0xbc51f67c	-0.012815114
225	0x3d5c343d	0.053760756
226	0x3d56d90e	0.052453093
227	0x3d4b5075	0.049637277
228	0xbd164913	-0.036690783
229	0xbd3c8157	-0.046021786
230	0xbd7487d4	-0.05969985
231	0xbc821daf	-0.015883295
232	0xbd329650	-0.04360038
233	0x3cafeaae	0.021474209
234	0xbc92ffbd	-0.017944211
235	0x3cd67c87	0.026182426
236	0xbda10eaf	-0.07864129
237	0xbd6c6ba8	-0.057719857
238	0xbc9c8c6c	-0.019109927
239	0x3beb00fd	0.0071717487
240	0x3d5c4e19	0.053785417
241	0xb9a8a090	-0.00032163085
242	0x3d582afe	0.052775376
243	0xbc1bbe0c	-0.00950576
244	0xbb890b76	-0.0041822745
245	0xbc8d0d76	-0.017218333
246	0xbbd1af25	-0.0063990527
247	0xbc06d36a	-0.008229116
248	0xbd1c3b0f	-0.03814226
249	0x3be80f68	0.0070819147
250	0xbc0e639c	-0.008690741
251	0xbcc86cf7	-0.024466021
252	0xbd481106	-0.04884436
253	0xbd806893	-0.06269946
254	0xbc9f3d7c	-0.019438498
255	0xbd53f8a6	-0.0517508

enc.net.7.bias f4 [64]
0	0xbd381b1e	-0.044947736
1	0xbd17d571	-0.037068788
2	0x3d06aa1e	0.03287708
3	0x3d216cb6	0.039410315
4	0x3c5fa320	0.013649732
5	0xbcbd862a	-0.023135263
6	0xbcfda0c0	-0.03096044
7	0xbc4847ab	-0.012224118
8	0x3c5dcb04	0.013537172
9	0x3d096416	0.033542715
10	0x3ca9c287	0.02072264
11	0x3ced44a2	0.02896339
12	0x3ce5dee8	0.028060392
13	0x3c9be69e	0.019030865
14	0x3a090a11	0.0005227635
15	0x3c6dd8da	0.0145170335
16	0xbcc95f3b	-0.024581542
17	0x3c5585f4	0.013032425
18	0xbd2aafee	-0.041671686
19	0xbd3b58fa	-0.04573915
20	0xbcb3a326	-0.021928381
21	0xbd29432c	-0.041323826
22	0xbbee5c1c	-0.007274164
23	0x3d6df5aa	0.05809561
24	0x3d07e650	0.033178627
25	0x3bf1e5bf	0.007382124
26	0xbc931bff	-0.017957686
27	0xbcd02653	-0.0254089
28	0x3b789c2d	0.0037934885
29	0xbc5a0d00	-0.0133087635
30	0xbc1c73be	-0.009549079
31	0xbd41dc62	-0.047329314
32	0x3d12e3aa	0.03586165
33	0x3ba26744	0.004956158
34	0xbcb30845	-0.02185453
35	0x3bfa600b	0.0076408437
36	0xbc98d05c	-0.018654041
37	0xbd3f8e31	-0.046766464
38	0xbc1d64a8	-0.009606518
39	0xbd713b9e	-0.058894746
40	0xbc9d37f2	-0.019191716
41	0x3c9fde0d	0.019515062
42	0xbd3e096a	-0.046395697
43	0x3cb73568	0.022364333
44	0x3d7018ab	0.058617275
45	0x3c759032	0.014987992
46	0xbd24a952	-0.04020054
47	0xbca54bfa	-0.02017783
48	0xbc7823e9	-0.01514528
49	0xbbae7d6b	-0.0053250096
50	0xbd2ff0d4	-0.04295428
51	0xbc7ef6e6	-0.015561795
52	0x3c900419	0.017580079
53	0xbd5de60a	-0.05417446
54	0xbd3199f7	-0.043359723
55	0x3ce4834c	0.027894638
56	0xbc559675	-0.01303636
57	0xbcfd1bdc	-0.030897073
58	0x394dbd21	0.0001962078
59	0x3d020016	0.031738363
60	0x3cf3eafd	0.029775137
61	0xbc1a54e5	-0.0094196545
62	0xbbf2a206	-0.0074045686
63	0x3ce5e329	0.02806242

enc.net.8.weight f4 [64]
0	0x3f7d4b65	0.9894317
1	0x3f80a378	1.0049887
2	0x3f7c4050	0.98535633
3	0x3f80216a	1.0010197
4	0x3f80ba66	1.0056884
5	0x3f7ec916	0.9952558
6	0x3f7f2b47	0.9967541
7	0x3f80bf5b	1.0058397
8	0x3f814ee1	1.0102197
9	0x3f80e410	1.0069599
10	0x3f7ee35a	0.9956566
11	0x3f7dbafa	0.9911343
12	0x3f7ef0ba	0.9958607
13	0x3f80a725	1.0051008
14	0x3f812f90	1.009264
15	0x3f7c9190	0.9865961
16	0x3f7ce098	0.987802
17	0x3f7f222b	0.9966151
18	0x3f80ac63	1.0052608
19	0x3f7ed1a8	0.9953866
20	0x3f7f797a	0.99794734
21	0x3f80480d	1.0021988
22	0x3f807363	1.0035213
23	0x3f7e66e0	0.99375725
24	0x3f7cc4ac	0.987376
25	0x3f7e8d98	0.99434805
26	0x3f7b554d	0.98177034
27	0x3f7ec774	0.9952309
28	0x3f7e0ca1	0.9923802
29	0x3f805345	1.0025412
30	0x3f7f45ea	0.99716055
31	0x3f7f0e06	0.99630773
32	0x3f801c42	1.0008624
33	0x3f819514	1.012362
34	0x3f7dda59	0.991613
35	0x3f7cf686	0.98813665
36	0x3f7ed51c	0.9954393
37	0x3f7fa166	0.9985565
38	0x3f7f5d30	0.9975157
39	0x3f7e0722	0.99229634
40	0x3f800180	1.0000458
41	0x3f7c0a12	0.98452866
42	0x3f7f152f	0.996417
43	0x3f807b5a	1.0037644
44	0x3f823176	1.0171344
45	0x3f81a63b	1.0128855
46	0x3f80f61e	1.0075109
47	0x3f7e5e32	0.9936248
48	0x3f8095df	1.0045737
49	0x3f7f3993	0.99697226
50	0x3f806982	1.0032198
51	0x3f804dc8	1.0023737
52	0x3f7ffc60	0.9999447
53	0x3f7d31d1	0.9890414
54	0x3f7d51e2	0.9895307
55	0x3f7fab8a	0.9987112
56	0x3f80975f	1.0046195
57	0x3f804e28	1.0023851
58	0x3f7f7412	0.99786484
59	0x3f802bbd	1.0013348
60	0x3f811d69	1.00871
61	0x3f813627	1.0094651
62	0x3f7fe601	0.99960333
63	0x3f80cdc6	1.0062797

enc.net.8.bias f4 [64]
0	0x3aaf2add	0.0013364215
1	0x3b5f245d	0.0034048774
2	0xbc672522	-0.014107974
3	0xb9cdbca0	-0.00039241184
4	0x3b4e7613	0.0031503483
5	0x3a162d78	0.0005728821
6	0xbc68998d	-0.014196766
7	0x3bae9a0d	0.005328423
8	0x3c186791	0.009302036
9	0xbc09ad77	-0.008403174
10	0x3a53d512	0.0008080761
11	0xbc8d7ea7	-0.017272307
12	0xbb72262c	-0.0036949022
13	0xbc3e64ea	-0.0116207395
14	0xbca017fb	-0.019542685
15	0xbc84694f	-0.016163496
16	0xbbb42fab	-0.0054988465
17	0xbc819247	-0.01581682
18	0x3c09b0d0	0.008403972
19	0xbbadf047	-0.0053081843
20	0xbc2f640e	-0.010705007
21	0xbb57c7ae	-0.0032925415
22	0x3c0a5132	0.00844221
23	0xbc22089c	-0.009889748
24	0xbc27a5d0	-0.010232404
25	0xbc93dd52	-0.01804987
26	0xbc62ada0	-0.013835341
27	0xbc2142ff	-0.009842633
28	0xba2b51e4	-0.0006535335
29	0xbc35c3d5	-0.011094053
30	0x3b10e5ec	0.00221097
31	0xbcea819c	-0.028626256
32	0xbb78f8b6	-0.003799004
33	0xbc58b8f6	-0.013227692
34	0xbb538cc0	-0.0032279938
35	0xbc0de9c1	-0.008661688
36	0xbbcdf202	-0.006284953
37	0x3b3aac8b	0.0028484191
38	0x3b1c127a	0.0023814724
39	0xbb8d77cd	-0.00431726
40	0xbc1ce56e	-0.009576185
41	0xbc8d4963	-0.017246908
42	0xbc4fbecb	-0.012679766
43	0x3c1ba642	0.009500088
44	0x3ab4faed	0.0013807692
45	0x3c9b58db	0.018963268
46	0x3c14fe01	0.009093762
47	0xbba78cca	-0.005113219
48	0xbc567c83	-0.013091209
49	0xbc0dc630	-0.008653209
50	0xbc81b031	-0.015831085
51	0xba9ef348	-0.0012126947
52	0xba1dbaf5	-0.00060169335
53	0xbc148fb8	-0.009067468
54	0xbc92bb80	-0.017911673
55	0xbaf8a811	-0.0018970986
56	0xbc800b89	-0.0156305
57	0x3b2d7670	0.00264683
58	0xbb8e3803	-0.004340173
59	0xbc92c640	-0.017916799
60	0xbc6e27a6	-0.01453582
61	0xbc323110	-0.010875955
62	0xbbe8ef05	-0.0071085715
63	0x3b07e679	0.0020736738

enc.net.8.running_mean f4 [64]
0	0xbf7e3f22	-0.99315083
1	0x3e4e4ef6	0.20147309
2	0xbd63436c	-0.05548422
3	0xbda85d53	-0.08220925
4	0x3e2265de	0.15859172
5	0xbf0b529b	-0.5442292
6	0xbd173725	-0.036917824
7	0xbf030235	-0.5117524
8	0x3e8e1a71	0.27754548
9	0x3e80949a	0.25113374
10	0xbf429a1a	-0.7601639
11	0x3ee372ee	0.44423622
12	0xbd275ce3	-0.040860068
13	0x3e89f2fd	0.26943198
14	0x3f356d41	0.70869833
15	0xbef2dee8	-0.4743569
16	0xbddb0f9d	-0.10696337
17	0x3f45c609	0.772553
18	0xbea844c9	-0.3286498
19	0xbf5b8b6d	-0.8575962
20	0x3f18e9e4	0.5973189
21	0x3c7eaff9	0.015544885
22	0x3ac713ed	0.0015188433
23	0xbdf9301d	-0.1216738
24	0x3ea92320	0.3303461
25	0xbf295c73	-0.6615669
26	0xbdce6f1e	-0.10079788
27	0x3f54d637	0.83139366
28	0xbe55f407	-0.2089387
29	0x3d0e53f7	0.034748044
30	0xbe37e388	-0.1795789
31	0xbd4a8412	-0.04944236
32	0xbf114826	-0.56750715
33	0xbe45e100	-0.19324112
34	0x3e04aa87	0.12955676
35	0xbedcde07	-0.43138143
36	0x3eafa6a0	0.34306812
37	0xbd4c15c0	-0.04982543
38	0xbe2be672	-0.16787127
39	0x3ed82f4c	0.42223585
40	0x3ed0725e	0.40712255
41	0x3e42bfde	0.19018504
42	0x3f35af18	0.70970297
43	0xbdfbb459	-0.12290258
44	0xbd17eb91	-0.037089888
45	0xbf493e6b	-0.7861087
46	0xbf12b6ba	-0.5731007
47	0xbe92fefe	-0.2871017
48	0x3e9797bc	0.29607952
49	0x3ea840fc	0.3286208
50	0x3f2e4d0f	0.6808633
51	0x3e85e44a	0.26150733
52	0xbe2374e0	-0.15962553
53	0xba77d210	-0.0009453604
54	0x3f043c65	0.51654655
55	0x3cfe4c5a	0.031042267
56	0x3ddf3441	0.108986385
57	0xbe6c80e4	-0.23096043
58	0x3ec120c8	0.37720323
59	0x3f6aa2a7	0.9165444
60	0xbe85d7c4	-0.2614118
61	0x3e80e098	0.2517135
62	0xbf437b99	-0.7636047
63	0x3d0432c2	0.03227497

enc.net.8.running_var f4 [64]
0	0x3eebe659	0.4607418
1	0x3ec477af	0.3837256
2	0x3e93f4b5	0.28897634
3	0x3ed38a2b	0.4131635
4	0x3ea152dd	0.31508532
5	0x3eb1b34b	0.34707102
6	0x3efdb6b2	0.49553448
7	0x3ef7ad04	0.48374188
8	0x3f267159	0.65016705
9	0x3e80f73b	0.25188622
10	0x3f242274	0.6411507
11	0x3f227013	0.6345226
12	0x3e9acc8a	0.30234176
13	0x3ec33149	0.3812354
14	0x3e846c5c	0.25863922
15	0x3f168950	0.5880327
16	0x3eb727cf	0.3577256
17	0x3f6f97a1	0.9359074
18	0x3f1a8954	0.60365796
19	0x3ea7711e	0.3270349
20	0x3e99af1e	0.30016416
21	0x3e94eff6	0.29089326
22	0x3ec2cd21	0.38047126
23	0x3ea379a8	0.31928754
24	0x3e9353cf	0.28774878
25	0x3e378a71	0.17923905
26	0x3f4e76d1	0.8065005
27	0x3f47072c	0.7774532
28	0x3ebdd8f0	0.37079573
29	0x3e8e487b	0.27789673
30	0x3eb72cef	0.3577647
31	0x3e80dc13	0.25167903
32	0x3ea01249	0.3126395
33	0x3eaf6df1	0.34263566
34	0x3e88d229	0.2672284
35	0x3e7742c7	0.24146567
36	0x3e923e06	0.28562945
37	0x3ec004f8	0.3750379
38	0x3f0f53dc	0.55987334
39	0x3f2285c3	0.63485354
40	0x3f04b631	0.518405
41	0x3e3da726	0.18520793
42	0x3f3242f1	0.69633394
43	0x3ed2bd91	0.41160253
44	0x3e9a9c10	0.3019719
45	0x3f18e165	0.59718925
46	0x3f2da668	0.6783204
47	0x3ea749ad	0.32673398
48	0x3e53bcc3	0.20677476
49	0x3e9da29e	0.3078813
50	0x3eedda0e	0.46455425
51	0x3eb53056	0.3538844
52	0x3ece28f8	0.40265632
53	0x3ece9aab	0.40352377
54	0x3e37a84c	0.17935294
55	0x3e702442	0.23451331
56	0x3e880c02	0.2657166
57	0x3f550da2	0.8322393
58	0x3e8a568d	0.27019158
59	0x3e7beffd	0.24603267
60	0x3ea2385a	0.31683618
61	0x3f20f660	0.6287594
62	0x3ee27e01	0.44236758
63	0x3e87b6a4	0.2650653

enc.net.11.weight f4 [128, 64, 3, 3]
0	0x3d35b931	0.044366065
1	0xbcaee459	-0.021349119
2	0x3bf4f281	0.007475198
3	0xbc66ed0d	-0.014094603
4	0x3cb1052a	0.021608908
5	0x3be210b8	0.0068989657
6	0xbce03313	-0.027368104
7	0xbbd72a37	-0.0065663117
8	0x3caa87b2	0.020816658
9	0xbd303d71	-0.043027345
10	0xbd30722f	-0.043077644
11	0x3afaf580	0.0019146651
12	0xbd1619aa	-0.03664557
13	0xbb6c59c9	-0.0036064258
14	0xbd0aa62e	-0.033849888
15	0xbd45f06a	-0.04832498
16	0x3d16fb74	0.036860898
17	0x3cec1506	0.028818619
18	0xbd373b6d	-0.044734407
19	0x3d19a7dc	0.0375136
20	0xbc810fa8	-0.015754536
21	0x3cc6d0bf	0.02426946
22	0x3ce5b8c1	0.0280422
23	0x3ac3c473	0.0014935866
24	0xbcd6014e	-0.026123669
25	0x3cdda111	0.027054342
26	0x3b8210f7	0.0039693075
27	0xbc4bfc79	-0.012450331
28	0xbc1125bf	-0.008859097
29	0xbcfa68ad	-0.030567491
30	0xbcefc2f1	-0.02926776
31	0xbd2aaed5	-0.04167064
32	0xbd126b4d	-0.03574686
33	0xbcc7eb96	-0.024404328
34	0x3ca1a1fc	0.01973056
35	0x3c02ec3d	0.007990894
36	0xbc55408f	-0.01301588
37	0xbd299e5a	-0.04141078
38	0xbcec0106	-0.028809082
39	0xbd40f080	-0.04710436
40	0xbd1994e4	-0.03749551
41	0x3c94f3d6	0.018182676
42	0x3cdf13e2	0.02723116
43	0x3ba346d8	0.0049828105
44	0x3c638f88	0.013889201
45	0x3cf5b7a1	0.029994788
46	0x3d3101c1	0.043214563
47	0x3cb4f55e	0.022089656
48	0x3c91dbaa	0.01780494
49	0xbbe8626a	-0.00709181
50	0x3af3260b	0.0018550766
51	0xbc08c658	-0.00834807
52	0x3c1993cc	0.009373616
53	0x3c0fc7e1	0.008775682
54	0xbbd71163	-0.006563352
55	0xbd206694	-0.039160326
56	0x3ca59bea	0.020215947
57	0xbc48f7eb	-0.0122661395
58	0xbd07df72	-0.03317208
59	0xbcb01ffc	-0.021499626
60	0xbd13f49b	-0.036121946
61	0xbb876114	-0.0041314457
62	0x3d0e7729	0.03478161
63	0x3cb7ea1a	0.022450496
64	0xbb594c97	-0.0033157223
65	0x3ae2c3bc	0.0017300765
66	0xbd345d45	-0.04403426
67	0xbd06c15e	-0.032899253
68	0xbd1b58a2	-0.037926324
69	0xbd345a90	-0.04403168
70	0xbb0d160c	-0.0021528034
71	0xbc89640d	-0.01677134
72	0x3c9c5006	0.019081127
73	0x3d2e1587	0.042501
74	0xbc985a4b	-0.018597743
75	0x3c549129	0.012974062
76	0xbbf1e471	-0.0073819687
77	0x3cb2fcba	0.021849025
78	0x3cd8fe4a	0.026488442
79	0xbc9c8efb	-0.019111147
80	0x3ca30ee9	0.01990457
81	0x3c81686b	0.01579686
82	0xbca48bb5	-0.020086149
83	0x3bfbe3ff	0.0076870914
84	0x3d18462b	0.037176292
85	0xbcc8e892	-0.02452496
86	0xbb65e55a	-0.003507933
87	0x3cc2642e	0.02372941
88	0xbc029fc2	-0.00797266
89	0xbb97fc7e	-0.0046382537
90	0x3b0d11fe	0.0021525617
91	0xbd21f7da	-0.03954301
92	0xbcbf32e2	-0.023339693
93	0x3ca08c86	0.019598257
94	0xbd33c3b4	-0.04388781
95	0xbc2dced9	-0.010608398
96	0xbc64d1a9	-0.0139660025
97	0x3c4ff0f0	0.012691721
98	0x3bb6095d	0.0055553154
99	0xbbbcb5b4	-0.0057589654
100	0x3d20dbdf	0.039272185
101	0xbcaa9074	-0.020820834
102	0x3cf2821d	0.029603058
103	0xbcc9e1bb	-0.02464377
104	0x3cc30541	0.023806216
105	0xbd16c74a	-0.03681115
106	0x3d0c3d7a	0.034238316
107	0x3d2e89d9	0.04261193
108	0x3c7ac406	0.015305525
109	0x3d0c606a	0.034271635
110	0xbc55ef54	-0.013057549
111	0x38638b45	5.4250722e-05
112	0xbd0431ab	-0.03227393
113	0x3d3bbe63	0.045835864
114	0xbbfcf160	-0.007719204
115	0xbace6536	-0.0015746716
116	0x3d48e6d6	0.049048267
117	0xbd026d6d	-0.031842638
118	0xbcc2cde7	-0.023779823
119	0x3d064284	0.032778278
120	0x3a35d7f3	0.0006936781
121	0xbcc63f9e	-0.024200257
122	0xbce139b9	-0.027493345
123	0xbd37c6e8	-0.044867426
124	0xbcc1c736	-0.023654561
125	0x3cddb641	0.027064444
126	0xbd273f7b	-0.040832024
127	0xbd23e37c	-0.040011868
128	0xbc439c7a	-0.011939162
129	0x3c981af0	0.018567532
130	0xbd06b07d	-0.032883156
131	0x3ce34c27	0.027746273
132	0xbb7fe7e6	-0.0039048134
133	0x3b8790f1	0.0041371514
134	0xbce6906f	-0.028145043
135	0x3c3fc3f2	0.011704432
136	0x3c09d3f3	0.008412349
137	0xbcc474e2	-0.023981515
138	0x3ca0a9ac	0.019612156
139	0xbbc898af	-0.006121717
140	0xbcfc1cd2	-0.030775461
141	0xbd31c25d	-0.04339825
142	0xbc680d02	-0.014163258
143	0xbd057cca	-0.03258971
144	0xbc8ed83b	-0.017437091
145	0x3c0aac5b	0.008463944
146	0xbc104e0a	-0.008807668
147	0x3d1ae9db	0.03782068
148	0xbd253201	-0.04033089
149	0xbc6e80fc	-0.014557119
150	0x3ccaba8e	0.02474716
151	0x3d09876d	0.033576418
152	0xbc6fa250	-0.014626101
153	0xbd220211	-0.039552752
154	0xbd0bbf10	-0.03411776
155	0x3cd9e85b	0.026600054
156	0x3d304735	0.04303666
157	0xbcfa9b94	-0.030591764
158	0xbbecd840	-0.0072279274
159	0xbc8fe5a9	-0.017565565
160	0x3caa823a	0.02081405
161	0x3cb79212	0.022408519
162	0xbd309e30	-0.04311961
163	0xbd16c7f0	-0.03681177
164	0xbcd183ed	-0.025575602
165	0x3cdc8134	0.026917078
166	0xbd4055c5	-0.046956796
167	0xbcff6e13	-0.031180417
168	0xbb80ad55	-0.003926913
169	0xbd2a9206	-0.041643165
170	0xbbf4a0b6	-0.0074654473
171	0x3cac44b9	0.021028863
172	0xbc1f235b	-0.009713019
173	0xbc9d3099	-0.019188212
174	0x3c9fbc27	0.019498898
175	0xbd1951d3	-0.03743155
176	0xbcc14ee3	-0.023597186
177	0xbce40fe8	-0.027839616
178	0xbd075fd4	-0.033050373
179	0xbcbf56e0	-0.023356855
180	0x3d207ad4	0.039179638
181	0x3d0fcded	0.035108496
182	0x3cd4c66b	0.02597352
183	0xbcab5e4a	-0.020918984
184	0xbc554b7b	-0.013018484
185	0xbcb19707	-0.02167846
186	0xba0297d9	-0.00049817335
187	0xbb839861	-0.0040159677
188	0x3d1a894b	0.03772859
189	0x3cd26ce8	0.025686696
190	0x3ceb02b3	0.02868781
191	0x3b13122c	0.0022441251
192	0x3d1f2faf	0.038863834
193	0xbcc12ac5	-0.023579964
194	0x3d3cab66	0.046061896
195	0x3d08319d	0.03325044
196	0xbd01a4c9	-0.031651292
197	0x3ceef59b	0.029169848
198	0x3c7589e2	0.014986487
199	0x3ca72f91	0.020408424
200	0x3bf24ab7	0.0073941606
201	0xbc74c6f8	-0.014940016
202	0x3d1f3128	0.03886524
203	0x3c36c91f	0.011156349
204	0xbc8322c2	-0.016007785
205	0xbb504995	-0.003178214
206	0x3cac9e67	0.021071626
207	0xbd14c790	-0.03632313
208	0xbc579728	-0.013158597
209	0x3ceec4f2	0.029146645
210	0x3d302d36	0.043011867
211	0xbc93431e	-0.01797634
212	0x3d2de396	0.04245337
213	0xbc80d80b	-0.015728017
214	0xbc85174d	-0.016246462
215	0x3c9c0597	0.019045634
216	0x3d0c6b64	0.034282103
217	0xbcba3007	-0.02272798
218	0x3c3413ed	0.010991079
219	0x3cf91ebb	0.030410161
220	0x3cf60578	0.030031905
221	0x3bcee578	0.006313976
222	0x3c2abb39	0.010420614
223	0xbb4144ee	-0.0029490548
224	0xbc2fba4f	-0.010725572
225	0x3d2a7f0d	0.04162507
226	0x3cdda782	0.027057413
227	0x3d34ad7f	0.04411077
228	0xbc83f39e	-0.016107377
229	0x3d0cd21c	0.034380063
230	0x3bb2d3ac	0.005457362
231	0x3cb1edd7	0.021719856
232	0xbcb4dc9d	-0.022077853
233	0x3cf96d29	0.03044756
234	0xbcf0b21b	-0.029381802
235	0xbcea23b0	-0.02858147
236	0x3c921fd6	0.017837446
237	0xbc55164a	-0.013005802
238	0xbcd72849	-0.026264327
239	0x3cf427e1	0.029804172
240	0x3c74e7cd	0.014947844
241	0x3d2a0b92	0.04151494
242	0x3cc1a7a6	0.023639511
243	0x3c14137f	0.009037851
244	0xbc98960d	-0.018626237
245	0xbcca7542	-0.024714116
246	0x3c6e7d79	0.014556282
247	0xbbec88d0	-0.0072184578
248	0xbc7df2cd	-0.015499783
249	0xbd32fc80	-0.043697834
250	0xbc29f0a1	-0.010372312
251	0xbc9b8fec	-0.018989526
252	0x3ce95375	0.028482178
253	0xbcee70af	-0.029106466
254	0xbcf15015	-0.029457131
255	0x3a43120f	0.00074413506

enc.net.11.bias f4 [128]
0	0xbce854a3	-0.02836067
1	0x3c8b1b71	0.016980859
2	0xbc94f879	-0.018184887
3	0xbd103987	-0.035211112
4	0xbd04679b	-0.03232537
5	0x3c844564	0.01614637
6	0x3c4ddddf	0.012565105
7	0x3d208b1f	0.039195176
8	0xbcd05225	-0.025429795
9	0xbcdaf42e	-0.026727762
10	0x3c5bb85d	0.013410655
11	0x3cb55dd1	0.022139462
12	0x3c032600	0.008004665
13	0x3d1247a4	0.035712853
14	0x3d2737c1	0.040824655
15	0x3d2320e0	0.039826274
16	0x3ce4fb0f	0.027951745
17	0xbd14e074	-0.036346868
18	0xbd1c59e9	-0.038171683
19	0xbd150d73	-0.03638978
20	0x3cfcbccd	0.030851746
21	0xbc0e1252	-0.00867136
22	0x3b3e38b4	0.0029025497
23	0xbd25885b	-0.04041324
24	0xba0ff23e	-0.0005491114
25	0xbc0d85ab	-0.008637826
26	0x3c45db81	0.01207626
27	0x3bb03b55	0.0053781667
28	0xbcc14eb1	-0.023597093
29	0xbc5d340b	-0.013501178
30	0x3c8eb747	0.017421378
31	0x3c7af010	0.015316024
32	0xbcb771da	-0.022393156
33	0x3cd0f93d	0.025509471
34	0xbc16f0ed	-0.009212715
35	0xbcee5a69	-0.029095845
36	0x3b57de6a	0.0032938966
37	0x3cb8b947	0.022549285
38	0xb99d059a	-0.00029949547
39	0xbc80bfb7	-0.015716417
40	0x3b978e9c	0.0046251547
41	0x3bbc6545	0.005749377
42	0xbca8ba10	-0.020596534
43	0x3cc9ebab	0.024648508
44	0x3c894b7c	0.016759627
45	0xbc6136c3	-0.013745966
46	0xbcb39ca5	-0.02192528
47	0xbc26908a	-0.010166297
48	0xbcbac7c5	-0.022800336
49	0x3b2d2ab6	0.0026423163
50	0xbd26f791	-0.04076344
51	0xbcc9d15e	-0.024635967
52	0x3d07293e	0.032998316
53	0xbcef03f8	-0.029176697
54	0x3bbe3b7d	0.0058054314
55	0x3caa62ab	0.020799002
56	0xbc71decd	-0.0147625925
57	0x3d0dc141	0.03460813
58	0xbd02e731	-0.031958763
59	0x3c9d6e30	0.01921758
60	0x3c13d0b1	0.009021924
61	0x3cd7d6a9	0.026347475
62	0xbca5c493	-0.020235335
63	0x3d15fee9	0.036620054
64	0x3d26f407	0.040760066
65	0xbd0185d5	-0.031621773
66	0xbce7b490	-0.028284341
67	0xbd282bdb	-0.04105745
68	0x3b4267a9	0.0029663837
69	0x3c6f36ca	0.014600465
70	0xbd006b6d	-0.03135245
71	0x3cb46b4f	0.022023825
72	0x3c4dc39f	0.012558847
73	0x3c8f50b4	0.017494537
74	0xbcdd2b2b	-0.026998123
75	0x3c0bc354	0.008530457
76	0x3cc5cef6	0.024146538
77	0xbd035080	-0.032059193
78	0x3b86ff2b	0.004119774
79	0x3cb1ce1e	0.02170473
80	0xbcc80b50	-0.024419457
81	0x3c70e404	0.014702801
82	0xbc97042d	-0.018434608
83	0xbcce09bb	-0.025151124
84	0x3d0c5111	0.034257
85	0xbd1ec184	-0.03875877
86	0x3b49b772	0.0030779508
87	0x3cd3635d	0.025804216
88	0x3bc98ca4	0.006150799
89	0x3bb3b7b5	0.005484546
90	0x3cfab002	0.030601505
91	0xbb909f17	-0.0044134962
92	0xbd236d48	-0.03989914
93	0x3cd68ead	0.02619108
94	0xbb5d4478	-0.0033762734
95	0xbca88bbd	-0.020574445
96	0x3b85e14a	0.0040856944
97	0xbcf928b1	-0.030414911
98	0xbcf98d45	-0.03046287
99	0xbc038a8c	-0.008028638
100	0xbcba5924	-0.022747584
101	0xbc8aec57	-0.016958399
102	0xbbfa5be1	-0.0076403474
103	0x3cfd0ea0	0.030890763
104	0xbc03ba53	-0.008040029
105	0x3ce07ac0	0.027402282
106	0xbd29ffa8	-0.04150358
107	0xbce8b620	-0.028407156
108	0x3c9ef508	0.01940395
109	0x3cc7758c	0.024348043
110	0xbd032390	-0.032016337
111	0x3c591517	0.013249657
112	0x3cea2713	0.028583085
113	0xbcf20ae5	-0.02954621
114	0x3cffffec	0.031249963
115	0xbd06c9c5	-0.032907266
116	0x3a12236d	0.0005574737
117	0x3d1a0172	0.037599035
118	0x3ca528e5	0.020161102
119	0xbcd21e9b	-0.02564936
120	0x3d21b219	0.039476488
121	0x3caed3b6	0.021341186
122	0xbce4bbe7	-0.02792163
123	0xbcc44ea8	-0.023963287
124	0x3b5cb1f9	0.0033675416
125	0xbce2b704	-0.02767516
126	0x3cbffb1e	0.023435172
127	0x3c1d03ba	0.009583408
